trajectory_prediction_of_pedestrians/code/saved_models/gru_model_eth_lr_0.0007_epoch_20_predlen_8_obs12.pt (torch, 304361 bytes, 8 tensors)

weight f4 [64, 2]
0.29430214 0.6485245 -0.24136902 -0.04628223 -0.59233516 0.22059926 0.6800544 0.6294528
-0.2395222 -0.004686935 -0.7278127 0.18979672 -0.080050424 -0.6271983 0.08449065 0.11778566
-0.47184435 -0.3711435 0.55402505 0.39756864 -0.5745967 0.52572346 0.13559765 0.4787472
-0.25574604 0.0990929 0.3874725 -0.56044245 -0.44202697 0.0017927614 -0.20189813 -0.57847923
-0.42277366 -0.65006256 -0.33943042 -0.043404683 0.70140874 0.073242635 -0.45008036 0.5577353
0.6124024 -0.07804467 0.13138966 0.62484896 -0.15582144 0.7101571 -0.21945284 0.57842547
-0.4556577 -0.5434191 0.53858644 0.063869536 -0.4109581 -0.32775667 -0.21263698 -0.4699403
0.37915307 -0.25780964 -0.004788958 -0.09629492 -0.6119391 -0.44985852 0.119683936 0.037619404
-0.08136575 0.58757603 0.6097419 0.5328184 -0.73706377 0.570791 0.11724379 0.46860754
0.5046469 -0.66112036 0.54189634 -0.02650497 0.23025396 0.5030328 -0.36278823 -0.22565693
0.38471165 -0.4906818 -0.5122858 0.71814793 0.08808134 -0.1686299 -0.18999696 -0.636616
0.34348133 -0.025364846 0.7540099 0.18476373 0.5134011 0.35652557 -0.24500121 -0.54965407
-0.3939569 0.15493429 0.18234503 -0.4018287 0.05391687 -0.25512382 0.29960525 -0.27422068
0.3827887 0.46582726 -0.33620396 0.44709742 0.3333241 0.47826672 0.29274228 0.13932675
0.43687794 0.42260733 0.36354467 -0.08630657 -0.22125539 0.411424 -0.19476835 0.045970086
-0.48930582 0.21911193 0.21886039 -0.24828862 0.61689836 -0.11753813 -0.6383691 0.63810635
00000000: c5ae 963e b405 263f 7129 77be 7092 3dbd
00000010: 47a3 17bf c6e4 613e 0c18 2e3f d223 213f
00000020: 4f45 75be dc94 99bb ef51 3abf 125a 423e
00000030: 7af1 a3bd 1190 20bf 6f09 ad3d 9c39 f13d
00000040: 9595 f1be 8506 bebe 96d4 0d3f 1e8e cb3e
00000050: c518 13bf d095 063f 1cda 0a3e 5a1e f53e
00000060: 25f1 82be 38f1 ca3d cc62 c63e 2879 0fbf
00000070: 5c51 e2be 17fb ea3a 62be 4ebe 3717 14bf
00000080: ca75 d8be 806a 26bf d3c9 adbe 1cc9 31bd
00000090: 868f 333f 3c00 963d ef70 e6be bec7 0e3f
000000a0: 67c6 1c3f e2d5 9fbd 038b 063e 1af6 1f3f
000000b0: a88f 1fbe dbcc 353f 3fb8 60be b113 143f
000000c0: f74b e9be 841d 0bbf cde0 093f 08ce 823d
000000d0: 1a69 d2be b9cf a7be 82bd 59be 049c f0be
000000e0: 5a20 c23e a0ff 83be b1ec 9cbb 4536 c5bd
000000f0: 0aa8 1cbf db53 e6be da1c f53d ce16 1a3d
00000100: 16a3 a6bd 626b 163f 0c18 1c3f c966 083f
00000110: 36b0 3cbf 5c1f 123f 831d f03d 54ed ef3e
00000120: 8a30 013f 2f3f 29bf b8b9 0a3f f320 d9bc
00000130: b2c7 6b3e c2c6 003f 61bf b9be 9c12 67be
00000140: edf8 c43e a53a fbbe 2a25 03bf 8bd8 373f
00000150: fd63 b43d 51ad 2cbe 908e 42be 44f9 22bf
00000160: c9dc af3e f0c9 cfbc cb06 413f b432 3d3e
00000170: 416e 033f 858a b63e 99e1 7abe 21b6 0cbf
00000180: b8b4 c9be 18a7 1e3e a8b8 3a3e 7ebc cdbe
00000190: f0d7 5c3d 979f 82be dc65 993e a766 8cbe
000001a0: e1fc c33e e980 ee3e ed22 acbe f4e9 e43e
000001b0: 75a9 aa3e 60df f43e 51e2 953e acab 0e3e
000001c0: 77ae df3e fd5f d83e 8722 ba3e 80c1 b0bd
000001d0: c690 62be 2ba6 d23e 5b71 47be 214b 3c3d
000001e0: 4b86 fabe e15e 603e f01c 603e 5f3f 7ebe
000001f0: 0ded 1d3f d5b7 f0bd 286c 23bf f05a 233f

bias f4 [64]
-0.45245585 0.62807256 0.35659245 0.13443004 -0.5324737 -0.6569296 0.0113669615 0.16852084
-0.6932713 -0.41103423 -0.31472176 -0.44030312 -0.6796501 -0.09129165 0.61400074 -0.096330196
-0.5913777 0.25359264 0.69106704 -0.26482385 0.31525338 -0.6381987 -0.6631183 -0.5863248
-0.69019747 -0.2233967 -0.06964299 0.33438626 0.11395895 -0.3363797 -0.03861314 0.29580525
-0.6483538 0.21906087 0.30105266 0.6300891 0.024402203 -0.6629194 -0.55058956 -0.47690675
-0.78764397 -0.6087165 0.6770322 -0.7345024 -0.5390559 0.49970207 0.6930608 0.50590044
-0.17759523 -0.18424071 0.5079787 0.3855676 0.2802215 -0.5435929 -0.42705715 -0.24135672
-0.43388397 -0.20282201 -0.6474058 0.06862544 0.16026185 0.16556092 0.36212006 -0.27644956
00000000: 4ba8 e7be 5dc9 203f 4993 b63e 07a8 093e
00000010: 3250 08bf 8a2c 28bf 7e3c 3a3c ba90 2c3e
00000020: 3a7a 31bf 1473 d2be 3623 a1be 696f e1be
00000030: 8dfd 2dbf 1ef7 babd 272f 1d3f c448 c5bd
00000040: 8764 17bf e5d6 813e c5e9 303f fe96 87be
00000050: e468 a13e fd60 23bf 1fc2 29bf 6219 16bf
00000060: c8b0 30bf 1bc2 64be fca0 8ebd ad34 ab3e
00000070: 4f63 e93d f639 acbe d028 1ebd c973 973e
00000080: 84fa 25bf 7e51 603e 9323 9a3e 854d 213f
00000090: 21e7 c73c 16b5 29bf 70f3 0cbf 1f2d f4be
000000a0: 09a3 49bf d8d4 1bbf fb51 2d3f 5908 3cbf
000000b0: 91ff 09bf f3d8 ff3e 6f6c 313f b182 013f
000000c0: 86db 35be 99a9 3cbe e40a 023f 1e69 c53e
000000d0: 3179 8f3e e728 0bbf 3ca7 dabe 3726 77be
000000e0: 0a26 debe 93b0 4fbe 63bc 25bf 7f8b 8c3d
000000f0: af1b 243e cd88 293e cd67 b93e cc8a 8dbe

weight_ih f4 [384, 64]
-0.045360018 -0.011038462 -0.059278835 0.122943 0.065708764 -0.07203955 0.030022576 -0.022292776
-0.122994125 0.14993288 -0.06893001 -0.016228618 -0.061974745 0.025374642 0.027955934 -0.006697781
0.028581996 0.0038921717 0.007858191 0.03875692 -0.064196296 0.032930437 0.10808403 -0.035488594
0.09762331 0.08349271 0.022885513 -0.08202367 -0.10631011 -0.14397442 0.046349406 -0.040689673
0.08793013 0.10805045 0.055084463 0.06942172 -0.0034482807 -0.00094256777 -0.020714385 -0.017966336
-0.100050144 0.06630002 0.05372034 0.11163525 -0.03155885 -0.026150094 0.051810417 -0.030951869
0.08333287 -0.059214525 -0.08593765 -0.04198143 0.10793643 0.016679218 -0.02709514 0.034992974
0.020418284 0.031790275 -0.07390854 -0.03932123 0.104888216 -0.093833864 0.045408957 0.10820814
-0.08239773 -0.14888303 -0.103071816 -0.041199364 0.028529331 -0.08368507 -0.026008993 0.054454096
-0.0720163 0.03972098 0.05767759 -0.091366224 -0.046201263 0.008840151 -0.0046810345 -0.060837694
-0.014488593 -0.054765638 -0.061724186 -0.03822116 -0.0018416325 0.01959356 -0.11029142 -0.05408501
-0.038382385 0.04439529 -0.07977136 0.009615521 0.02809116 -0.015221123 -0.098868705 0.06743665
-0.06564502 -0.014419342 -0.00049298693 -0.015063004 0.06518428 -0.0071971496 -0.076211505 -0.14781979
0.06981489 0.030842155 0.075403064 0.06276082 0.025959624 -0.07320625 -0.035861474 0.038646568
0.033728924 -0.07029569 0.008272165 -0.07092478 0.056453984 0.03459495 0.10890388 0.1495046
-0.004461075 0.07706896 -0.08237389 -0.043237075 0.050205667 0.071477816 -0.06890001 -0.05598551
-0.064827494 -0.025698114 -0.08101426 0.027844835 0.027808318 -0.006774086 0.01757999 0.06372529
-0.030004088 0.09051454 0.007243067 0.033445727 0.100474894 0.09421114 -0.010486618 0.09424035
0.048399355 -0.025123658 -0.026117647 -0.03913446 -0.06091747 -0.087142244 -0.03744527 -0.072210506
0.11409595 -0.058777574 0.023730839 -0.041690987 0.062399395 0.12157076 0.02963185 0.019689325
0.05076137 -0.03061744 -0.0148839895 0.038724165 -0.01778297 -0.044567328 0.0189795 -0.044156738
0.02114412 0.021888224 0.061896384 -0.04171473 -0.017103447 -0.091385886 0.03351327 0.061288934
-0.04746652 -0.023566268 0.08547577 -0.069884576 -0.029407684 -0.019778078 0.013820417 0.11128516
0.10955126 0.028898621 0.051515546 -0.046232183 -0.1375699 0.040796615 0.087620005 0.05389914
-0.007216344 0.067582384 -0.0020544017 0.09176988 0.082812935 -0.033378985 0.046054516 0.12707075
-0.037577324 0.03413317 0.088472754 -0.019940438 -0.0070040696 0.111188814 -0.07487703 0.099167
0.015147719 0.018737463 0.12371498 -0.05591295 0.019346947 0.010704954 -0.015938716 0.098252736
0.017710006 0.08142067 -0.033706125 -0.06271365 0.05835659 0.022648975 -0.0014801995 0.066959396
0.11639811 0.0728176 -0.013407871 0.015318785 0.09546733 -0.03446258 0.0023999172 -0.050563976
-0.04491521 0.10408916 0.07976637 0.02803056 0.07665347 0.11288413 0.07312185 0.02524303
-0.059734322 0.08590821 0.02984493 0.01422536 0.15114132 0.031875726 0.09786887 0.0564754
0.091487795 0.027423868 -0.057045218 -0.008723677 0.060950655 0.10593215 0.06819246 0.08570286
00000000: 6dcb 39bd aada 34bc 5dce 72bd 8ac9 fb3d
00000010: 5192 863d 7989 93bd e8f1 f53c 579f b6bc
00000020: 58e4 fbbd 0188 193e 2d2b 8dbd e1f1 84bc
00000030: 3bd9 7dbd 7bde cf3c d803 e53c 0f79 dbbb
00000040: ca24 ea3c ce13 7f3b a4bf 003c 93bf 1e3d
00000050: 5979 83bd 11e2 063d 295b dd3d 7d5c 11bd
00000060: bbee c73d 3afe aa3d 667a bb3c 07fc a7bd
00000070: 1db9 d9bd 086e 13be e0d8 3d3d 37aa 26bd
00000080: b614 b43d 8e49 dd3d 3fa0 613d fa2c 8e3d
00000090: 8dfc 61bb a716 77ba 37b1 a9bc 232e 93bc
000000a0: 17e7 ccbd 4ec8 873d dc09 5c3d 06a1 e43d
000000b0: da43 01bd b938 d6bc 2937 543d c68e fdbc
000000c0: 6caa aa3d ee8a 72bd 1400 b0bd b8f4 2bbd
000000d0: c60d dd3d dba2 883c a1f6 ddbc cb54 0f3d
000000e0: 3f44 a73c 8536 023d 5c5d 97bd 4c0f 21bd
000000f0: a2cf d63d f82b c0bd befe 393d 3b9c dd3d
00000100: 24c0 a8bd cb74 18be 5117 d3bd aac0 28bd
00000110: 58b6 e93c 1463 abbd d010 d5bc 420b 5f3d
00000120: 487d 93bd 77b2 223d 563f 6c3d 371e bbbd
00000130: 893d 3dbd 48d6 103c 5d63 99bb f230 79bd
00000140: 9061 6dbc ef51 60bd 80d2 7cbd cb8d 1cbd
00000150: ef62 f1ba ac82 a03c 78e0 e1bd 3e88 5dbd
00000160: d936 1dbd d6d7 353d 2b5f a3bd 6b8a 1d3c
00000170: 6f1f e63c 0462 79bc ad7b cabd 3a1c 8a3d
00000180: e570 86bd 1b3f 6cbc cb3b 01ba d1ca 76bc
00000190: 567f 853d 11d6 ebbb c714 9cbd 125e 17be
000001a0: 1cfb 8e3d b0a8 fc3c ec6c 9a3d bf88 803d
000001b0: 47a9 d43c 29ed 95bd 7be3 12bd dd4b 1e3d
000001c0: 5727 0a3d 30f7 8fbd fa87 073c 0341 91bd
000001d0: 4b3c 673d 6fb3 0d3d ff08 df3d bc17 193e
000001e0: 362e 92bb 55d6 9d3d a4b3 a8bd 5c19 31bd
000001f0: 75a4 4d3d f662 923d 731b 8dbd 1051 65bd
00000200: 47c4 84bd da84 d2bc ceea a5bd da1a e43c
00000210: 45ce e33c 27f9 ddbb e903 903c 6882 823d
00000220: 22cb f5bc b05f b93d 4057 ed3b 63fe 083d
00000230: c8c5 cd3d c5f1 c03d 10d0 2bbc 1601 c13d
00000240: 673e 463d 21d0 cdbc adf4 d5bc 754b 20bd
00000250: 9984 79bd a277 b2bd 3660 19bd 1ae3 93bd
00000260: 23ab e93d c1c0 70bd 2d67 c23c 2bc4 2abd
00000270: 8296 7f3d 17fa f83d 7ebe f23c 824b a13c
00000280: 28eb 4f3d 6dd1 fabc fadb 73bc 3b9d 1e3d
00000290: 97ad 91bc 3b8c 36bd e57a 9b3c b2dd 34bd
000002a0: 6f36 ad3c ef4e b33c 1087 7d3d 11dd 2abd
000002b0: 871c 8cbc 8628 bbbd 3645 093d 1b0a 7b3d
000002c0: 416c 42bd 0c0e c1bc ec0d af3d a51f 8fbd
000002d0: 62e8 f0bc a305 a2bc 086f 623c 79e9 e33d
000002e0: 695c e03d cdbc ec3c f701 533d f55d 3dbd
000002f0: 20df 0cbe 5a1a 273d 1e72 b33d 58c5 5c3d
00000300: 1577 ecbb a268 8a3d 24a3 06bb d9f1 bb3d
00000310: d499 a93d 67b8 08bd a9a3 3c3d d61e 023e
00000320: aeea 19bd 39cf 0b3d 3431 b53d 215a a3bc
00000330: 6582 e5bb f6b6 e33d 2159 99bd 1118 cb3d
00000340: 232e 783c 4f7f 993c 485e fd3d fa04 65bd
00000350: 7d7d 9e3c d563 2f3c e991 82bc bb38 c93d
00000360: 9314 913c e1bf a63d 6f0f 0abd 0470 80bd
00000370: 5207 6f3d 588a b93c 4103 c2ba 0222 893d
00000380: 2262 ee3d 6521 953d b0ac 5bbc a4fb 7a3c
00000390: 6084 c33d a228 0dbd ee47 1d3b 2c1c 4fbd
000003a0: 03f9 37bd b32c d53d 8d5c a33d 58a0 e53c
000003b0: 7ffc 9c3d cb2f e73d e9c0 953d 79ca ce3c
000003c0: faab 74bd a5f0 af3d 5b7d f43c 7c11 693c
000003d0: cac4 1a3e 1f90 023d 796f c83d c052 673d
000003e0: f45d bb3d 05a8 e03c 3fa8 69bd c1ed 0ebc
000003f0: 65a7 793d f4f2 d83d 7da8 8b3d fb84 af3d

weight_hh f4 [384, 128]
-0.00010321256 -0.021239676 0.048575804 0.018740164 0.042174723 -0.070224844 0.067895435 -0.08094674
0.06532522 0.071824454 -0.06342869 0.07340371 -0.034228146 0.05411631 -0.059150603 0.013880731
0.0069142384 0.05500324 -0.049316745 0.059588723 -0.08864721 -0.0738445 -0.090159334 0.08777207
-0.022792868 0.014923816 0.011988166 -0.08668298 -0.013444016 0.028846918 0.047625937 -0.074287735
0.05601219 -0.020015163 0.022685103 -0.11658586 -0.01546032 -0.012660689 -0.12237134 0.09366167
-0.09061903 0.013058987 -0.014675136 -0.003855185 0.04866048 -0.01921335 0.06607102 0.03246979
-0.043866675 -0.045708694 0.017016012 -0.0605745 0.06563749 0.003245481 -0.057381663 0.056222983
-0.03214612 0.06915439 0.025649358 0.04102428 0.04507993 -0.015736498 0.0659324 0.07513055
-0.03932934 0.071933836 0.0070810933 -0.08500274 -0.011439949 -0.043585457 -0.032092914 0.014768784
-0.07205402 0.003622027 0.010051317 -0.0027647973 0.03583914 -0.011209117 -0.093785405 -0.043057345
0.09356508 0.014149265 -0.014317594 0.06402177 0.006160305 0.04073633 0.061494857 -0.046255168
0.03714185 0.007257428 -0.05307247 0.011011656 -0.030870084 0.06315936 -0.082373664 0.07515411
-0.06227634 0.020092458 0.010529925 -0.04181204 0.031527326 0.0793125 0.010070823 0.06432003
0.04065644 0.027320618 0.06443048 0.059891116 -0.033450272 -0.014627911 0.077408895 -0.06964059
-0.042809956 0.07019421 -0.03726895 -0.09023188 -0.0030266263 -0.015263476 0.0041550114 -0.10586061
-0.11986582 -0.0146192 0.018829394 -0.020129535 0.014020407 -0.114828385 0.0562813 0.08611538
-0.045136467 0.057548545 0.0035313326 -0.07788657 -0.046738006 -0.12544969 0.09576834 -0.012691602
-0.021826439 0.11044822 0.07624425 0.0010041108 0.047799252 -0.06532619 0.05499048 -0.1092374
0.035009984 0.07025045 -0.0015085054 -0.039096504 0.02728621 0.0073209517 0.019451316 0.012078376
-0.056374777 0.082206815 -0.040223956 -0.038431514 0.025628187 0.07034106 -0.025288338 0.005874401
-0.05354544 -0.03345537 -0.06635995 -0.049920477 -0.07211076 0.01025118 0.0466515 -0.02782069
0.018007772 -0.0061975466 -0.01758602 -0.088828005 0.033702925 0.056128595 -0.009492494 0.000603765
-0.002789942 -0.017865006 0.055378668 0.03521489 -0.058021136 -0.043020636 -0.08131564 0.11438041
0.00063198345 -0.023234807 0.03763726 -0.025205381 0.06893488 -0.002045712 0.04152299 0.00039033417
-0.1133995 0.053408787 0.050162006 -0.10417349 0.053003717 0.03056158 0.05901475 0.104313314
0.01487397 0.12360859 -0.032629173 0.07246748 0.00076124107 -0.051480506 -0.010384587 -0.07494335
0.004711853 -0.03588463 -0.056752462 0.023251658 -0.064427555 -0.011546901 0.011842181 -0.03762818
-0.0344163 -0.049962703 0.014714929 0.06375502 0.05232694 -0.02845603 0.050471354 0.034013357
-0.08660978 0.041640613 -0.06821116 -0.047874365 0.085067555 -0.019282587 -0.061019674 -0.0838978
-0.10008478 -0.016139202 0.06914222 0.12507877 0.115391724 -0.08025769 0.07898159 -0.037849
-0.069602266 0.091077045 -0.04739968 0.009615693 -0.1229755 -0.066212706 0.045078065 -0.00092631654
0.017690083 -0.039144147 -0.03903037 -0.030784877 -0.09281322 0.004778017 0.05488859 0.040901814
00000000: d273 d8b8 d4fe adbc 6cf7 463d f984 993c
00000010: 67bf 2c3d 0bd2 8fbd c30c 8b3d 68c7 a5bd
00000020: 3bc9 853d b318 933d e7e6 81bd af54 963d
00000030: d032 0cbd 10a9 5d3d e747 72bd 016c 633c
00000040: d690 e23b 144b 613d 5b00 4abd 4e13 743d
00000050: ab8c b5bd c93b 97bd 75a5 b8bd d8c1 b33d
00000060: 1cb8 babc 0583 743c 036a 443c d986 b1bd
00000070: 4a44 5cbc 5f50 ec3c 6a13 433d 2b24 98bd
00000080: 0a6d 653d d7f6 a3bc 1cd6 b93c 91c4 eebd
00000090: 484d 7dbc c76e 4fbc d39d fabd b1d1 bf3d
000000a0: 7896 b9bd 5df5 553c fb6f 70bc 45a7 7cbb
000000b0: 3650 473d 5165 9dbc 3e50 873d 0bff 043d
000000c0: 8bad 33bd 0a39 3bbd 2a65 8b3c f81c 78bd
000000d0: f36c 863d 23b2 543b 0909 6bbd 124a 663d
000000e0: a6ab 03bd d1a0 8d3d 9a1e d23c 1309 283d
000000f0: bca5 383d d4e9 80bc 9107 873d 0cde 993d
00000100: cd17 21bd 0c52 933d 8408 e83b eb15 aebd
00000110: a06e 3bbc aa86 32bd dc73 03bd c5f8 713c
00000120: 0f91 93bd 885f 6d3b 47ae 243c 9a31 35bb
00000130: 10cc 123d 72a6 37bc 9012 c0bd e65c 30bd
00000140: 0c9f bf3d 52d2 673c 5794 6abc d91d 833d
00000150: 62dc c93b 23db 263d 08e2 7b3d 0f76 3dbd
00000160: 0d22 183d b8cf ed3b 8562 59bd 3c6a 343c
00000170: 42e3 fcbc b259 813d 86b3 a8bd 66ea 993d
00000180: 7a15 7fbd f098 a43c b585 2c3c 1a43 2bbd
00000190: cc22 013d 986e a23d 1800 253c 38ba 833d
000001a0: 5e87 263d 7dcf df3c 21f4 833d 6350 753d
000001b0: 2703 09bd e8a9 6fbc 8e88 9e3d ba9f 8ebd
000001c0: 7e59 2fbd fbc1 8f3d 54a7 18bd 7ecb b8bd
000001d0: 5d5a 46bb a913 7abc c326 883b 73cd d8bd
000001e0: 367c f5bd 5e85 6fbc 1a40 9a3c b2e6 a4bc
000001f0: d9b5 653c 252b ebbd 3887 663d 435d b03d
00000200: 04e1 38bd 06b8 6b3d ee6d 673b fe82 9fbd
00000210: 5a70 3fbd e275 00be 3122 c43d 70f0 4fbc
00000220: 5ccd b2bc ad32 e23d f225 9c3d 5e9c 833a
00000230: 26c9 433d bdc9 85bd b33d 613d dcb7 dfbd
00000240: a166 0f3d 78df 8f3d 0bb9 c5ba a823 20bd
00000250: 5487 df3c 98e4 ef3b 5e58 9f3c 61e4 453c
00000260: 3de9 66bd 0c5c a83d e0c1 24bd 5d6a 1dbd
00000270: 34f2 d13c f90e 903d 7d29 cfbc 0c7e c03b
00000280: 7752 5bbd 8008 09bd bae7 87bd 6a79 4cbd
00000290: ceae 93bd 91f4 273c a515 3f3d 37e8 e3bc
000002a0: 0985 933c ca14 cbbb 8f10 90bc 75eb b5bd
000002b0: 140c 0a3d 19e7 653d 6886 1bbc fc45 1e3a
000002c0: 76d7 36bb a259 92bc bed4 623d 7d3d 103d
000002d0: 92a7 6dbd 6836 30bd d088 a6bd 4740 ea3d
000002e0: b1ab 253a ec56 bebc 8729 1a3d 847b cebc
000002f0: bb2d 8d3d 5a11 06bb 0314 2a3d c4a5 cc39
00000300: ff3d e8bd 2cc3 5a3d ad76 4d3d e958 d5bd
00000310: 6d1a 593d 475c fa3c 73b9 713d 38a2 d53d
00000320: f4b1 733c 8026 fd3d 2ba6 05bd d569 943d
00000330: 068e 473a 39dd 52bd 1d24 2abc e67b 99bd
00000340: e365 9a3b c3fb 12bd 4575 68bd 437a be3c
00000350: 98f2 83bd 372f 3dbc b505 423c 0220 1abd
00000360: 1bf8 0cbd b1a5 4cbd e316 713c fe91 823d
00000370: c654 563d 9f1c e9bc 0dbb 4e3d 9751 0b3d
00000380: 7860 b1bd 598f 2a3d 4bb2 8bbd e917 44bd
00000390: e637 ae3d 84f6 9dbc c4ef 79bd 9cd2 abbd
000003a0: 40f9 ccbd 5c36 84bc 709a 8d3d a614 003e
000003b0: 7f52 ec3d 255e a4bd 1ac1 a13d 8e07 1bbd
000003c0: a28b 8ebd 9a86 ba3d 2b26 42bd 248b 1d3c
000003d0: 94da fbbd 879a 87bd c7a3 383d 0dd4 72ba
000003e0: cbea 903c 9d55 20bd 4fde 1fbd 9130 fcbc
000003f0: dc14 bebd e990 9c3b dcd2 603d a988 273d

bias_ih f4 [384]
0.058995504 0.0310506 0.062402062 -0.04178097 0.044572696 -0.01948318 -0.006867755 -0.06099129
-0.074811764 -0.06279126 -0.009557882 0.050238185 -0.07154539 -0.0965329 -0.03780983 0.0064991573
-0.009925505 0.007955207 0.03383953 0.0790505 -0.029900631 -0.014797979 -0.06260262 0.053105213
-0.00126665 0.025258983 0.08342832 0.03315782 0.034000896 -0.015165429 -0.0630509 -0.008749021
-0.06482442 0.0071138726 -0.048864335 0.028158527 -0.056166213 -0.025069807 0.025223378 -0.048126366
0.035843987 -0.0020798761 0.081552364 -0.061392456 -0.058063377 0.047766138 0.08519171 -0.10277163
-0.07341553 -0.0232412 0.023122052 0.0120396195 0.04053481 0.06878317 -0.09555708 -0.07198448
0.021168822 0.03268917 0.058145557 0.02458986 -0.0375768 0.074688144 -0.037598792 -0.06728408
-0.018089905 0.013219629 -0.03326638 0.0068252636 -0.04484243 0.055117592 0.00024689676 0.066322714
0.06864313 0.011414789 0.07389148 0.033936974 0.059645507 -0.073223546 0.0052013244 0.014231036
0.04053937 0.038356785 -0.06879123 0.09865374 -0.038593594 0.048069395 -0.030948564 0.054233506
0.07851002 -0.06807466 0.068336904 -0.033235405 -0.09925363 0.07970276 -0.100486346 -0.08551963
0.09620463 0.07148237 0.062106404 0.047305245 -0.05469138 -0.03414088 0.040093593 -0.050269656
-0.028732043 0.08161143 -0.02869684 0.016658291 -0.0015924181 -0.049067724 -0.098925956 0.025994895
0.04397307 0.019470584 0.12723711 0.019019099 -0.017266091 -0.017756743 0.009554485 -0.04036152
0.0005253957 0.032368325 0.082326524 0.052539937 -0.07089586 0.12547877 0.070191376 -0.02852693
0.069680154 0.01856047 0.11388699 0.07460928 0.023886979 0.106582746 -0.021269875 0.015587813
0.08727651 -0.0105942 0.051882256 -0.07184851 -0.064247236 0.09957343 -0.022661926 0.10658352
-0.050616056 0.056912284 0.041942425 0.057705395 0.14519447 0.030994873 0.07624414 0.015339315
-0.024094803 0.124959685 0.01032269 -0.035064287 -0.020786745 0.0015804393 0.010797619 0.14211331
0.0033324587 0.09225224 0.05151439 0.121624544 -0.0069928556 -0.052342605 0.06233471 0.13166982
0.018877333 -0.08036212 -0.01479124 0.053391054 0.06721726 0.11597116 0.11004234 0.05462279
0.012418729 -0.009640136 -0.003498793 -0.010028295 0.050751504 0.07772469 -0.08236333 -0.0004539574
0.087807946 0.046217434 0.11144415 -0.011021269 -0.008712014 -0.021738883 0.07597399 0.034373663
0.05701074 -0.011998393 -0.030366648 0.08055457 0.015491092 -0.07262922 -0.033550564 -0.041981112
0.052823316 0.07621531 0.061475568 0.1366906 0.05812607 0.06622259 0.09901601 0.06536455
0.09803322 -0.018749168 -0.0012034798 0.012129571 0.043532412 -0.04231382 0.1027194 0.064595446
0.12140495 0.073883295 -0.005521871 0.109521 0.05628577 0.02542668 0.09763331 -0.024682213
0.050175983 -0.037829977 0.034096394 0.08009849 0.10917254 0.05844834 0.009668165 0.04737815
-0.02119856 0.11973504 0.07097816 0.022292651 0.09006296 -0.0127692465 -0.004797461 0.08143672
0.11928026 -0.043542586 0.057748336 0.01593171 0.072220564 0.10337761 0.09324187 -0.01016457
-0.038994126 0.077788055 0.006192034 0.045359295 0.024814026 0.047827877 -0.016987054 -0.031389356
00000000: 45a5 713d d45d fe3c 4e99 7f3d 8622 2bbd
00000010: dc91 363d 319b 9fbc e80a e1bb 01d2 79bd
00000020: e936 99bd b498 80bd aa98 1cbc 8ec6 4d3d
00000030: 6486 92bd 0bb3 c5bd 7bde 1abd e2f6 d43b
00000040: 969e 22bc 8e56 023c 529b 0a3d 3be5 a13d
00000050: 2bf2 f4bc 3973 72bc cd35 80bd da84 593d
00000060: b905 a6ba edeb ce3c 78dc aa3d 7fd0 073d
00000070: 8644 0b3d 6b78 78bc d520 81bd 0e58 0fbc
00000080: aac2 84bd 7d1b e93b f825 48bd b6ac e63c
00000090: 8b0e 66bd 325f cdbc 42a1 ce3c 2720 45bd
000000a0: 25d1 123d 884e 08bb ed04 a73d a876 7bbd
000000b0: ddd3 6dbd 6da6 433d fe78 ae3d ef79 d2bd
000000c0: e25a 96bd 5464 bebc 756a bd3c d341 453c
000000d0: d407 263d 31de 8c3d 6eb3 c3bd 996c 93bd
000000e0: 3d6a ad3c 14e5 053d 092a 6e3d ad70 c93c
000000f0: 21ea 19bd 19f6 983d 3101 1abd 3ccc 89bd
00000100: 4831 94bc 2597 583c 5442 08bd 76a6 df3b
00000110: b2ac 37bd fcc2 613d ec71 8139 34d4 873d
00000120: c594 8c3d 1805 3b3c 6b54 973d 7f01 0b3d
00000130: d94e 743d 3af6 95bd df6f aa3b 4b29 693c
00000140: 9c0c 263d 011c 1d3d 6be2 8cbd f90a ca3d
00000150: 5114 1ebd 6ae4 443d d887 fdbc f423 5e3d
00000160: ddc9 a03d ba6a 8bbd 38f4 8b3d d921 08bd
00000170: 7d45 cbbd 333b a33d c9cb cdbd ea24 afbd
00000180: ef06 c53d 5965 923d 4963 7e3d 25c3 413d
00000190: 1204 60bd 4fd7 0bbd 2e39 243d 8ee7 4dbd
000001a0: 765f ebbc e523 a73d a315 ebbc f876 883c
000001b0: afb8 d0ba 3dfb 48bd b199 cabd 3ff3 d43c
000001c0: 1b1d 343d c680 9f3c 724a 023e f1cd 9b3c
000001d0: 9e71 8dbc 9776 91bc 6a8a 1c3c 1f52 25bd
000001e0: b5ba 093a a694 043d cf9a a83d 1e34 573d
000001f0: d931 91bd 827d 003e 7fc0 8f3d 4fb1 e9bc
00000200: 78b4 8e3d 200c 983c 953d e93d c0cc 983d
00000210: a0ae c33c 0e48 da3d 293e aebc 0764 7f3c
00000220: 07be b23d 4c93 2dbc 7d82 543d 5025 93bd
00000230: 0e94 83bd 28ed cb3d 81a5 b9bc 7648 da3d
00000240: c852 4fbd db1c 693d d2cb 2b3d 7e5c 6c3d
00000250: dcad 143e f6e8 fd3c e325 9c3d c051 7b3c
00000260: 7762 c5bc ddea ff3d 8020 293c 929f 0fbd
00000270: f748 aabc be26 cf3a 7fe8 303c 2786 113e
00000280: 6165 5a3b beee bc3d c100 533d 4a16 f93d
00000290: 5324 e5bb 3365 56bd ae52 7f3d 74d4 063e
000002a0: a3a4 9a3c e594 a4bd f556 72bc 94b0 5a3d
000002b0: 34a9 893d 4a82 ed3d e15d e13d 26bc 5f3d
000002c0: ed77 4b3c a9f1 1dbc 024c 65bb b84d 24bc
000002d0: cfe0 4f3d 1f2e 9f3d 1bae a8bd 2101 eeb9
000002e0: a7d4 b33d 7e4e 3d3d d53c e43d 8d92 34bc
000002f0: d6bc 0ebc be15 b2bc 4098 9b3d 66cb 0c3d
00000300: 1884 693d e894 44bc 7ac3 f8bc cbf9 a43d
00000310: 59ce 7d3c a1be 94bd 516c 09bd 63f4 2bbd
00000320: 435d 583d c616 9c3d cecd 7b3d 9ff8 0b3e
00000330: 9a15 6e3d b69f 873d e8c8 ca3d d9dd 853d
00000340: a4c5 c83d db97 99bc 15be 9dba 1cbb 463c
00000350: 0b4f 323d 4251 2dbd 8c5e d23d 9e4a 843d
00000360: 29a3 f83d 2050 973d d0f0 b4bb 8c4c e03d
00000370: e88b 663d 9d4b d03c f9f3 c73d 5a32 cabc
00000380: 5585 4d3d 9bf3 1abd a9a8 0b3d ad0a a43d
00000390: da95 df3d 8767 6f3d 3967 1e3c 970f 423d
000003a0: 9aa8 adbc a537 f53d ff5c 913d 149f b63c
000003b0: ee72 b83d 1a36 51bc 0534 9dbb 4cc8 a63d
000003c0: 3549 f43d b659 32bd 8589 6c3d 3883 823c
000003d0: 60e8 933d a4b7 d33d 98f5 be3d 4c89 26bc
000003e0: 4eb8 1fbd 584f 9f3d 8ce6 ca3b abca 393d
000003f0: c946 cb3c 2ae7 433d 6f28 8bbc 2092 00bd

bias_hh f4 [384]
-0.093433745 0.061489858 -0.07447343 -0.06347869 0.006325127 -0.039454795 0.05541638 0.08731009
-0.078722596 0.021304887 -0.07307836 0.028051788 0.04322642 -0.12777653 -0.06956509 0.049554497
0.0029653385 0.038657177 -0.071065016 0.058629334 -0.056179658 0.09556081 0.045546718 -0.024780594
0.09935234 -0.07604519 0.052095957 0.02442474 -0.04140034 0.03952706 -0.05593306 0.03778002
-0.036509715 0.10220208 -0.0501836 -0.067118675 -0.071592204 -0.03237934 0.018206518 -0.07813833
-0.048191104 0.04745008 0.069948666 0.0029991015 0.023002246 -0.04889135 -0.05331278 0.052473806
-0.072496 -0.058291882 -0.013173976 -0.089480326 -0.04226701 0.008815891 -0.006578115 0.0010567779
-0.036170583 -0.014502266 0.02838049 0.013543978 0.03612696 -0.008493677 0.040838744 -0.03293134
0.03413977 -0.039154705 -0.025905361 -0.018314775 0.087709635 0.06381783 0.05855803 0.05183885
-0.02821678 0.056974385 0.017002927 0.07129337 0.03494441 -0.061628025 0.066132635 -0.07301533
-0.012940925 0.032699753 0.042964548 -0.06193605 -0.063696526 -0.008333504 0.08568339 -0.019204983
0.024167169 -0.055535365 -0.037336767 0.005623067 0.06428303 0.019964298 -0.061680514 0.0064245597
-0.04261799 0.06010435 -0.042937644 0.0133016035 0.016500605 0.050523948 0.083631076 -0.043166056
0.018833233 0.07776526 0.062900394 -0.061183292 0.09050623 -0.02232198 0.060488235 0.071757674
-0.09125802 0.03839659 0.1347623 0.058573697 0.059386466 -0.023563612 -0.08521068 -0.036659684
-0.08310275 -0.059961915 0.08270348 0.028309762 -0.0840983 0.0860871 -0.04030242 0.020944437
0.02695159 0.010759251 0.12613283 -0.005710143 -0.0013666148 0.06871444 0.08073253 -0.04940333
0.032127626 -0.011381593 0.05240309 -0.074040204 -0.08444141 0.086101815 0.059958685 0.03448523
-0.07113348 -0.026466278 0.029614765 0.046535827 6.250222e-06 0.008710263 -0.016018096 0.051984593
0.115256645 0.11728158 0.035522107 -0.01866073 0.047727246 0.03275361 -0.0042320504 0.11760283
0.05583468 -0.036045413 0.012349495 -0.020299682 0.122908756 0.03178012 -0.040418748 0.039401088
0.07208909 -0.06971007 0.024590835 0.10944564 0.049057554 0.024080982 -0.054845512 0.13694951
-0.010177755 0.11293277 0.05771858 -0.017289413 0.117756136 -0.0058445926 0.06534268 0.10346415
0.099013336 0.03464318 0.071540155 0.0045964783 -0.02469602 0.02205892 0.070554376 0.06646618
0.08368144 0.102300815 -0.070952855 0.053429432 0.052305494 0.058465682 0.017899232 -0.0243079
0.104859985 0.036272164 -0.016979063 0.09930803 0.064159505 0.05981923 0.011307425 0.017979069
0.12451489 -0.021974983 0.07195091 0.09625492 0.08497691 -0.013205894 0.074061505 0.08393952
0.09775718 -0.016888717 0.06521384 0.15765749 0.14192681 0.045442104 0.028188845 -0.008264803
0.11827337 0.020480508 0.099728286 0.062642016 -0.029582322 0.13112602 -0.027813127 -0.024058016
-0.04941107 0.015245087 0.042884175 0.08736293 -0.007864965 0.08468558 -0.0062779477 0.05302101
0.04616924 -0.008630524 0.028872345 -0.05245589 0.06423894 0.059324645 0.09789661 0.061532732
0.06340942 0.11317299 0.10788752 -0.06334181 -0.041026693 0.08371258 0.11350597 0.06315811
00000000: 315a bfbd cadc 7b3d 8785 98bd 1e01 82bd
00000010: 0343 cf3b 5a9b 21bd 49fc 623d a2cf b23d
00000020: 5039 a1bd 9687 ae3c 1baa 95bd ddcc e53c
00000030: 300e 313d dad7 02be 2478 8ebd a8f9 4a3d
00000040: 2056 423b fd56 1e3d 898a 91bd 5025 703d
00000050: a41c 66bd 63b5 c33d 328f 3a3d ac00 cbbc
00000060: 3d79 cb3d 95bd 9bbd 9262 553d 6416 c83c
00000070: 6793 29bd 20e7 213d 101a 65bd 39bf 1a3d
00000080: 368b 15bd 534f d13d 528d 4dbd 8475 89bd
00000090: ef9e 92bd 33a0 04bd d625 953c fd06 a0bd
000000a0: 0964 45bd 045b 423d 3f41 8f3d 938c 443b
000000b0: 356f bc3c 4c42 48bd 805e 5abd c6ee 563d
000000c0: c878 94bd 78c3 6ebd a9d7 57bc 7641 b7bd
000000d0: 2c20 2dbd 8770 103c 3a8d d7bb 9583 8a3a
000000e0: 9b27 14bd ea9a 6dbc 347e e83c 90e7 5d3c
000000f0: ddf9 133d 1029 0bbc 8746 273d 03e3 06bd
00000100: 25d6 0b3d af60 20bd 7b37 d4bc de08 96bc
00000110: 1ca1 b33d ecb2 823d 8bda 6f3d f954 543d
00000120: e026 e7bc f95d 693d b949 8b3c 4202 923d
00000130: df21 0f3d ab6d 7cbd 8c70 873d 1089 95bd
00000140: 2c06 54bc 2df0 053d 98fb 2f3d a8b0 7dbd
00000150: 5373 82bd 4089 08bc c67a af3d c553 9dbc
00000160: 3afa c53c 0d79 63bd 70ee 18bd b441 b83b
00000170: d2a6 833d 2b8c a33c b5a4 7cbd 1d85 d23b
00000180: 3490 2ebd fb2f 763d 62df 2fbd f8ee 593c
00000190: 472c 873c 33f2 4e3d c546 ab3d e4ce 30bd
000001a0: 2748 9a3c 6543 9f3d ecd1 803d 559b 7abd
000001b0: 555b b93d 96dc b6bc 83c2 773d b0f5 923d
000001c0: 7ce5 babd be45 1d3d 21ff 093e f9ea 6f3d
000001d0: 393f 733d 7a08 c1bc f082 aebd 7728 16bd
000001e0: c631 aabd a09a 75bd 7160 a93d e0e9 e73c
000001f0: bb3b acbd 6f4e b03d 2614 25bd ab93 ab3c
00000200: 95c9 dc3c 9247 303c f728 013e 271c bbbb
00000210: fc1f b3ba 28ba 8c3d 1957 a53d 255b 4abd
00000220: 4298 033d dc79 3abc 9fa4 563d 64a2 97bd
00000230: 9eef acbd 2656 b03d 3d97 753d 6240 0d3d
00000240: 6eae 91bd cfcf d8bc aa9a f23c 5a9c 3e3d
00000250: 00b9 d136 7eb5 0e3c 6238 83bc cced 543d
00000260: ad0b ec3d 5331 f03d a17f 113d 63de 98bc
00000270: a57d 433d a628 063d 03ad 8abb c1d9 f03d
00000280: e8b2 643d 5ba4 13bd 8955 4a3c 854b a6bc
00000290: 96b7 fb3d df2b 023d 218e 25bd 0963 213d
000002a0: 72a3 933d 27c4 8ebd b872 c93c 0925 e03d
000002b0: 93f0 483d 7b45 c53c b0a5 60bd 7e3c 0c3e
000002c0: 99c0 26bc 4c49 e73d 516a 6c3d 87a2 8dbc
000002d0: 212a f13d ff83 bfbb 62d2 853d 03e5 d33d
000002e0: 81c7 ca3d 02e6 0d3d a583 923d 0e9e 963b
000002f0: 4f4f cabc e8b4 b43c d07e 903d 6c1f 883d
00000300: 2d61 ab3d 1783 d13d bb4f 91bd d2d8 5a3d
00000310: 493e 563d b679 6f3d 69a1 923c 5c21 c7bc
00000320: d5c0 d63d 1f92 143d ad17 8bbc 0262 cb3d
00000330: 0f66 833d 0205 753d c742 393c d748 933c
00000340: aa01 ff3d e104 b4bc 005b 933d 4d21 c53d
00000350: 6008 ae3d 895d 58bc 8fad 973d 7ce8 ab3d
00000360: eb34 c83d 355a 8abc d58e 853d f770 213e
00000370: 4355 113e 8021 3a3d 4bec e63c 1969 07bc
00000380: 4f39 f23d bdc6 a73c 583e cc3d 754a 803d
00000390: a056 f2bc e645 063e 5bd8 e3bc 5115 c5bc
000003a0: 4363 4abd 88c6 793c 51a7 2f3d 56eb b23d
000003b0: 0edc 00bc a26f ad3d 3eb7 cdbb 8f2c 593d
000003c0: f51b 3d3d 0b67 0dbc b285 ec3c fddb 56bd
000003d0: b58f 833d 66fe 723d 057e c83d bf09 7c3d
000003e0: ccdc 813d 3ec7 e73d 22f4 dc3d 5ab9 81bd
000003f0: 9b0b 28bd 8071 ab3d d175 e83d 0a59 813d

weight f4 [2, 128]
-0.06042935 -0.06478875 -0.060746267 -0.0074508046 -0.062471222 -0.0056922603 0.08914127 -0.050150372
-0.0098352805 0.041881103 -0.04059039 0.025521904 0.027506283 -0.092147835 -0.07619034 -0.06490039
0.010264362 -0.09523462 -0.093930714 -0.04347097 0.020286854 0.04989925 -0.069252245 -0.06288913
0.06271931 -0.029682603 0.06728033 0.026457261 0.022009317 0.058216963 -0.007262707 -0.04299008
-0.029247688 -0.054832134 -0.08364588 0.006457064 -0.105641484 0.031278796 -0.017880462 -0.018363187
0.13989633 -0.07533326 -0.07396346 0.048404127 0.065982535 -0.037304018 0.07889546 -0.028879685
0.0143392095 -0.040965926 -0.04706823 -0.05571979 0.002886394 -0.033979878 -0.043890584 0.050913766
0.031667866 0.10280315 0.0801002 0.0838867 0.008653711 0.037774596 0.01133091 0.03971957
-0.049973357 -0.07408776 0.0366927 0.020692566 -0.059167072 -0.04392306 -0.0054438347 0.035008438
0.07185484 0.059741396 0.03728759 0.027753562 0.10469612 0.058663953 0.082340755 -0.0059340126
-0.123642005 -0.0133495955 -0.0994712 0.039271176 -0.06698602 0.04446458 -0.1075181 -0.044703376
-0.030501978 0.004107663 0.041071676 -0.083121374 -0.0030956394 0.032056678 0.059621464 0.085575014
0.062034067 -0.07771245 0.055010263 0.07127538 0.059299197 0.01110304 -0.06267509 0.09465764
-0.0117418105 0.11433121 0.0014054552 0.08062582 0.078649774 -0.07877311 0.020674389 -0.029764408
0.03872612 -0.06344015 -0.09121574 0.06684332 -0.011725602 0.070026554 -0.012154697 -0.047194045
0.0315081 -0.02120049 0.076639965 -0.012010154 -0.07334822 -0.042760547 -0.004293818 -0.048152715
-0.052303698 -0.100533634 -0.1345535 -0.10964712 0.09000119 0.043771498 -0.03768234 -0.029044712
-0.07504113 -0.055422775 -0.11682355 -0.11396883 0.06395603 0.029050171 0.13266271 -0.061985
-0.1191123 0.099666074 0.13002646 0.065682724 -0.07305875 0.097049825 0.09814037 -0.116007276
0.10515595 0.08116506 0.095214374 -0.11132554 -0.09636243 0.09330801 0.12689914 0.11953092
0.06268772 0.010230781 -0.08347076 0.084904276 0.0020343943 -0.063959315 0.055001907 0.07050894
-0.00090229895 0.06813407 -0.10378265 -0.1016181 -0.09987597 0.090749465 0.11120423 -0.059709948
-0.061904542 0.12773132 0.039070398 -0.073472425 -0.06398621 0.12938502 -0.024458924 -0.094293155
-0.11823394 -0.044890627 -0.060549468 -0.118127786 -0.040041734 -0.12442453 -0.07969771 -0.081765175
-0.056749552 0.0990125 0.10172005 -0.061958075 -0.08239872 -0.06389131 0.060595587 -0.11074555
0.101331554 0.014527541 -0.08155116 -0.0879571 -0.110585 0.13172394 -0.07567389 -0.1030182
0.03343312 0.021288 -0.13166809 0.0458472 0.07819201 0.13105804 0.09767984 -0.11330378
0.07174527 -0.05641506 -0.0714495 0.09233995 0.093070455 0.13100286 0.1271745 -0.044096235
0.09767678 0.094462104 -0.12956937 -0.10589145 -0.04636683 0.09296949 -0.04976498 -0.13143477
-0.13322015 -0.12232325 -0.006684604 0.019903954 0.06560625 -0.091199666 0.0692507 0.12961167
-0.09933164 -0.0185407 -0.04171263 0.102287486 0.067776956 -0.09006969 -0.077885166 0.061274994
0.11617586 -0.062623195 -0.042190503 -0.020887185 -0.1262044 0.06023012 0.08306529 0.04681591
00000000: c484 77bd f7af 84bd 14d1 78bd e125 f4bb
00000010: d3e1 7fbd 2486 babb b38f b63d 7a6a 4dbd
00000020: 2824 21bc 858b 2b3d 1c42 26bd 5013 d13c
00000030: db54 e13c 01b8 bcbd ae09 9cbd 7fea 84bd
00000040: db2b 283c 5e0a c3bd bf5e c0bd 9e0e 32bd
00000050: 9e30 a63c 2863 4c3d 1fd4 8dbd 04cc 80bd
00000060: fb72 803d ee28 f3bc 45ca 893d e6bc d83c
00000070: e24c b43c e974 6e3d 01fc edbb 5e16 30bd
00000080: d998 efbc a997 60bd 884e abbd c795 d33b
00000090: 905a d8bd 321e 003d 0c7a 92bc 656e 96bc
000000a0: fc40 0f3e 5348 9abd 287a 97bd 6843 463d
000000b0: da21 873d 19cc 18bd f193 a13d 1795 ecbc
000000c0: 01ef 6a3c e3cb 27bd 9eca 40bd 6f3a 64bd
000000d0: a829 3d3b 7c2e 0bbd 9dc6 33bd f48a 503d
000000e0: 2ab6 013d 758a d23d 930b a43d cacc ab3d
000000f0: 4bc8 0d3c 89b9 1a3d 48a5 393c fdb0 223d
00000100: ddb0 4cbd 53bb 97bd 164b 163d 7583 a93c
00000110: 2c59 72bd abe8 33bd 3262 b2bb 0265 0f3d
00000120: a128 933d 65b3 743d dfba 183d 705b e33c
00000130: eb6a d63d 9d49 703d 45a2 a83d 1b72 c2bb
00000140: 0538 fdbd 43b8 5abc 8eb7 cbbd d0da 203d
00000150: f72f 89bd 7e20 363d 7332 dcbd e31a 37bd
00000160: 49df f9bc 9399 863b c63a 283d 8a3b aabd
00000170: 36e0 4abb dd4d 033d a335 743d f441 af3d
00000180: 6f17 7e3d b427 9fbd 7152 613d d4f8 913d
00000190: b7e3 723d 86e9 353c cc5b 80bd dddb c13d
000001a0: b960 40bc 7b26 ea3d 4037 b83a 261f a53d
000001b0: 2213 a13d cc53 a1bd 565d a93c 7dd4 f3bc
000001c0: 489f 1e3d e9ec 81bd 51cf babd 27e5 883d
000001d0: bd1c 40bc 156a 8f3d 7f24 47bc 8b4e 41bd
000001e0: a30e 013d a6ac adbc 6af5 9c3d 3dc6 44bc
000001f0: 9737 96bd af25 2fbd 28b3 8cbb c83b 45bd
00000200: 673c 56bd 94e4 cdbd 65c8 09be ab8e e0bd
00000210: 8b52 b83d be49 333d cc58 1abd 2def edbc
00000220: 2aaf 99bd fe02 63bd 2f41 efbd 7d68 e9bd
00000230: 61fb 823d a0fa ed3c bcd8 073e fce3 7dbd
00000240: 26f1 f3bd ba1d cc3d a825 053e aa84 863d
00000250: d39f 95bd 0fc2 c63d d1fd c83d 3995 edbd
00000260: 015c d73d de39 a63d c1ff c23d a5fe e3bd
00000270: aa59 c5bd 4518 bf3d d9f1 013e a1cc f43d
00000280: 6b62 803d 019f 273c b8f2 aabd 4be2 ad3d
00000290: 7953 053b 1afd 82bd ae49 613d fe66 903d
000002a0: 4288 6cba e089 8b3d ff8b d4bd 271d d0bd
000002b0: c68b ccbd dbda b93d 0bbf e33d 6b92 74bd
000002c0: 9e8f 7dbd 00cc 023e 4808 203d b678 96bd
000002d0: 340b 83bd 827d 043e 155e c8bc c51c c1bd
000002e0: a324 f2bd 3cdf 37bd b802 78bd fbec f1bd
000002f0: cd02 24bd 4ad2 febd 8e38 a3bd 8074 a7bd
00000300: 3872 68bd 11c7 ca3d 9a52 d03d c0c7 7dbd
00000310: a9c0 a8bd 72d9 82bd 1433 783d 90ce e2bd
00000320: eb86 cf3d ec04 6e3c 4b04 a7bd da22 b4bd
00000330: 637a e2bd a4e2 063e eafa 9abd 35fb d2bd
00000340: 2bf1 083d 2c64 ae3c 00d4 06be 46ca 3b3d
00000350: 2223 a03d 1434 063e 5e0c c83d d00b e8bd
00000360: 2fef 923d 7a13 67bd 1e54 92bd ba1c bd3d
00000370: b99b be3d 9d25 063e 083a 023e 419e 34bd
00000380: c30a c83d 5975 c13d d5ad 04be 9edd d8bd
00000390: 25eb 3dbd ca66 be3d 5dd6 4bbd d696 06be
000003a0: dd6a 08be 9d84 fabd 860a dbbb 9e0d a33c
000003b0: 925c 863d e4c6 babd 50d3 8d3d ecb8 043e
000003c0: 636e cbbd abe2 97bc ddda 2abd 1a7c d13d
000003d0: a5ce 8a3d 7576 b8bd 4282 9fbd 7dfb 7a3d
000003e0: 9ced ed3d 9740 80bd f3cf 2cbd 9a1b abbc
000003f0: ba3b 01be dcb3 763d 221e aa3d 0ac2 3f3d

bias f4 [2]
0.0017383152 -0.121089846
00000000: 2ed8 e33a f4fd f7bd
