trajectory_prediction_of_pedestrians/code/saved_models/lstm_model_train_lstm_lr_0.0007_epoch_20_predlen_8_obs12.pt (torch, 139001 bytes, 8 tensors)

weight f4 [64, 2]
0	0xbed258aa	-0.4108327
1	0x3eceafee	0.403686
2	0xbf0f8b80	-0.56072235
3	0xbe8d5e1d	-0.27610865
4	0x3ef0d751	0.47039273
5	0xbe8d9b9a	-0.27657777
6	0xbe71e94a	-0.23624149
7	0xbd50b917	-0.050957765
8	0xbf2a9224	-0.6662924
9	0xbf2f116a	-0.68385947
10	0xbebb70a5	-0.36609378
11	0x3c40aed6	0.011760434
12	0x3e9a2fdf	0.30114648
13	0xbd95e42f	-0.07318913
14	0xbf2acc08	-0.66717577
15	0x3e83f03a	0.25769216
16	0xbd061f17	-0.032744493
17	0x3eba93a9	0.3644078
18	0x3c3d6811	0.011560456
19	0x3e9ca935	0.30597845
20	0xbef7bb7f	-0.48385236
21	0xbea94153	-0.3305765
22	0x3ef7d5bd	0.48405257
23	0x3f0e3d97	0.5556273
24	0x3dbcfcf5	0.09227935
25	0x3e2176aa	0.15767923
26	0x3e08524a	0.13312641
27	0x3f111970	0.5667944
28	0xbededd5d	-0.43528262
29	0xbd6bf001	-0.057601932
30	0x3e0f7ae8	0.14011729
31	0x3eb70035	0.35742345
32	0xbf22e5f6	-0.6363214
33	0x3dd629b6	0.104571745
34	0x3e8093e7	0.2511284
35	0xbef0424d	-0.46925583
36	0xbf1d06a1	-0.6133824
37	0x3f2354a2	0.63801014
38	0x3e6db439	0.2321328
39	0xbf1aee56	-0.6051992
40	0x3f16724b	0.5876815
41	0x3f07b7cd	0.5301483
42	0x3ee7e3a3	0.4529086
43	0x3dbf08fd	0.09327886
44	0x3c260452	0.010132866
45	0x3f1c8408	0.61138964
46	0x3d87fc81	0.06639958
47	0xbf26f3bd	-0.65215665
48	0x3ec952c6	0.39320964
49	0x3f102eb5	0.5632127
50	0xbe9e96ba	-0.3097437
51	0xbe4309ed	-0.19046755
52	0x3f084b79	0.5324016
53	0x3d212ce9	0.03934947
54	0x3e850a4c	0.25984418
55	0xbeaddd00	-0.33957672
56	0x3e4e1826	0.201264
57	0x3f1ee394	0.62066007
58	0xbd558294	-0.052126482
59	0xbe8f8363	-0.28029928
60	0xbf318872	-0.69348824
61	0xbe9d23cc	-0.30691373
62	0x3ed91da3	0.42405424
63	0x3e7a3a55	0.24436314
64	0xbd3338c4	-0.043755308
65	0x3c993caf	0.018705694
66	0x3f1dc1c8	0.6162381
67	0xbe0b2d8d	-0.13591595
68	0xbeb3b620	-0.35099888
69	0xbbed898c	-0.007249063
70	0x3ee25be1	0.44210723
71	0x3f09d75f	0.53844255
72	0xbf1cb7c9	-0.61217934
73	0x3e807b6c	0.25094163
74	0xbf3fe02c	-0.74951434
75	0x3f32e4d9	0.69880444
76	0xbf17f664	-0.5936034
77	0x3e95f5ea	0.2928918
78	0x3f1e520c	0.61843944
79	0xbc695e12	-0.0142436195
80	0x3f02c7ac	0.51085925
81	0xbdd0e5de	-0.10200094
82	0x3e75a89c	0.239901
83	0x3d417c25	0.047237534
84	0xbcf6ae74	-0.030112483
85	0xbe7fc5b6	-0.24977764
86	0x3e9aa7aa	0.30206043
87	0xbe4b0198	-0.19824827
88	0xbf26ee68	-0.6520753
89	0xbe8d56ce	-0.2760529
90	0x3eabec13	0.33578548
91	0x3f1feb9c	0.62468886
92	0x3e808ba8	0.2510655
93	0x3dbcd9a1	0.09221197
94	0x3e78be31	0.24291302
95	0xbf0d4a7e	-0.5519179
96	0x3f009ae7	0.5023636
97	0xbe803457	-0.25039932
98	0xbf2932c4	-0.6609309
99	0xbe9eee63	-0.3104125
100	0x3b5a3c37	0.003330005
101	0xbe61276b	-0.21987693
102	0xbf22a64b	-0.6353499
103	0xbeca9831	-0.39569238
104	0x3f1067e5	0.5640853
105	0xbf1d6bfb	-0.6149289
106	0xbf0661df	-0.5249309
107	0x3f1902f9	0.5977016
108	0x3ecea5f6	0.40360993
109	0xbf11f772	-0.57018197
110	0x3e03cf34	0.1287201
111	0xbea2b35b	-0.31777462
112	0xbe502191	-0.20325305
113	0xbefdc0e1	-0.49561217
114	0xbddd6f4a	-0.10812242
115	0x3e372e9e	0.17888877
116	0x3d8d99ef	0.06914126
117	0x3de2a7fa	0.11067195
118	0xbe78428c	-0.24244136
119	0x3dfad277	0.12247174
120	0x3ec13611	0.37736562
121	0xbf0c217a	-0.5473858
122	0x3ded148c	0.11576185
123	0x3d939048	0.07205254
124	0x3ee1b5da	0.44084054
125	0x3f23ae82	0.6393815
126	0xbe745921	-0.23862125
127	0xbd86d388	-0.06583315

bias f4 [64]
0	0x3e607521	0.21919681
1	0x3e87df6d	0.26537648
2	0x3e9eb910	0.31000566
3	0x3de726e0	0.11286712
4	0xbf28a9d9	-0.65884167
5	0xbe4ccdec	-0.20000428
6	0x3f3567d4	0.70861554
7	0x3ea46fb3	0.3211647
8	0xbf14b02e	-0.5808133
9	0x3ed1024b	0.40822062
10	0x3bebf448	0.0072007515
11	0xbc5854e5	-0.013203834
12	0xbe169b73	-0.14707737
13	0xbea1446d	-0.31497517
14	0xbed6ee99	-0.4197891
15	0x3dc3740d	0.09543619
16	0x3e003ccf	0.12523197
17	0x3c0fcf49	0.008777448
18	0xbd5f1a9f	-0.054468747
19	0xbf312589	-0.691979
20	0xbd06a8a7	-0.032875683
21	0xbf248a92	-0.6427394
22	0x3c85969e	0.016307171
23	0x3f0c8177	0.5488505
24	0xbe855547	-0.26041624
25	0x3f06808f	0.52539915
26	0xbf073eb0	-0.5283003
27	0x3ef4425c	0.47706878
28	0x3e15a7ae	0.14614746
29	0x3e75f086	0.24017534
30	0x3d48d361	0.04902971
31	0x3d201c88	0.03908971
32	0x3c2e76c1	0.01064843
33	0xbe00f442	-0.12593177
34	0x3f1ac35d	0.6045435
35	0xbd45acb8	-0.04826042
36	0x3f3fbee4	0.7490065
37	0x3e79c429	0.24391235
38	0x3efa6511	0.48905233
39	0xbf1fbb0d	-0.6239479
40	0xbe13f1b8	-0.14447677
41	0xbec325d5	-0.381148
42	0xbefaec06	-0.49008197
43	0x3e9379f8	0.28803992
44	0xbed58910	-0.41706133
45	0x3f0b28fc	0.5435941
46	0xbef6687d	-0.48126593
47	0x3ea2321b	0.31678852
48	0x3f2b04ed	0.6680439
49	0x3e60e188	0.21961033
50	0xbf016590	-0.505456
51	0xbf30e4fa	-0.6909939
52	0xbf17611a	-0.5913254
53	0xbe590234	-0.21192247
54	0x3e0609c1	0.13089658
55	0xbf2dbf06	-0.67869604
56	0xbf355707	-0.7083592
57	0x3dd8297b	0.10554787
58	0x3e9ba7b2	0.3040138
59	0xbeb1d684	-0.34733975
60	0xbeb4d3d9	-0.35317877
61	0xbe3fbc88	-0.18724263
62	0xbe04ddf4	-0.12975293
63	0xbeb9eb20	-0.363122

weight_ih f4 [256, 64]
0	0x3d4a5812	0.049400397
1	0xbd79aaa5	-0.060953755
2	0x3c87e459	0.016588377
3	0x3d51ee8d	0.05125289
4	0xbd0b93e1	-0.034076575
5	0x3d9e46a1	0.07728315
6	0xbc4b6f55	-0.01241668
7	0xbc10a285	-0.00882781
8	0xbda7896a	-0.081805065
9	0xbdf8641a	-0.12128468
10	0xbd816c65	-0.06319503
11	0xbdf34e21	-0.11880136
12	0xbda1556f	-0.07877623
13	0x3c901173	0.017586445
14	0x3dce6264	0.1007736
15	0x3cda2568	0.026629165
16	0xbe05a9dd	-0.13053079
17	0x3e0982a3	0.1342874
18	0xbe026300	-0.12733078
19	0xbc4280a4	-0.011871491
20	0xbe1c29b2	-0.1525028
21	0xbd257c6d	-0.040401865
22	0xbd2db2fc	-0.04240702
23	0x3d8a93bf	0.067664616
24	0xbd25f764	-0.040519133
25	0x3dcb94e4	0.09940508
26	0x3d8f0448	0.069832385
27	0xbc9a167c	-0.01880955
28	0xbbb54cd2	-0.0055328393
29	0xbd8aa794	-0.06770244
30	0x3e000f7b	0.12505905
31	0x3cc6256e	0.02418777
32	0xbdca2a35	-0.098713316
33	0x3dc08f31	0.094023116
34	0xbde5841d	-0.11206839
35	0xbbcecfff	-0.006311416
36	0xbda9c416	-0.082893535
37	0xbe0ffefe	-0.14062116
38	0xbdec4455	-0.11536471
39	0xbb688e61	-0.0035485255
40	0xbdd17618	-0.10227603
41	0xbc78b98b	-0.015180956
42	0xbda16300	-0.07880211
43	0x3d30b9f3	0.043146085
44	0xbc33eae2	-0.010981293
45	0xbdde8bb1	-0.10866488
46	0xbb7bd606	-0.0038427128
47	0x3d7a4d63	0.061108958
48	0xbd14b22d	-0.036302734
49	0xbd8de675	-0.06928722
50	0xbdd88da6	-0.10573892
51	0xbdb32d11	-0.0874883
52	0x3d9b1b89	0.07573611
53	0xbdbf039d	-0.09326861
54	0x3dfe4c29	0.1241687
55	0x3e09b0b5	0.13446315
56	0x3df3ac4c	0.118980974
57	0xbcdb6698	-0.026782319
58	0xbd2b0794	-0.041755274
59	0xbdc58286	-0.09644036
60	0x3e11de4c	0.14244956
61	0xbab361fd	-0.0013685819
62	0x3d69a975	0.057046372
63	0x3d9765dd	0.07392476
64	0x3d560465	0.052250285
65	0xbde038e9	-0.10948355
66	0xbda811a3	-0.08206489
67	0x3e02fcbf	0.12791727
68	0x39e3ca90	0.00043447735
69	0x3d8c5617	0.06852358
70	0x3e033820	0.12814379
71	0xbdc15519	-0.09440059
72	0xbdac9f02	-0.08428766
73	0x3ddc0240	0.10742617
74	0xbc666622	-0.014062436
75	0xbc419125	-0.01181439
76	0x3d730347	0.059329297
77	0x3b64b423	0.003489741
78	0xbdabb51b	-0.083841525
79	0xbc29c058	-0.0103608
80	0x3d8c4e20	0.06850839
81	0xbd4124f2	-0.047154374
82	0xbdb4cd7b	-0.08828255
83	0x3d932879	0.07185454
84	0xbce8a91a	-0.028400946
85	0x3d70543d	0.058674086
86	0xbd8384a4	-0.064217836
87	0x3dd253a7	0.10269862
88	0x3c7774cd	0.015103531
89	0xbd7f4c57	-0.062328663
90	0x3cdaaad3	0.026692783
91	0x3c2e9465	0.010655497
92	0x3da666bf	0.08125066
93	0x3d08efac	0.033431694
94	0xbd99f070	-0.07516563
95	0xbdf52461	-0.11969829
96	0x3d13500c	0.03596501
97	0xbdc73ab2	-0.09727992
98	0xbcce8e49	-0.025214331
99	0x3c83f27b	0.016106835
100	0xbd91aa02	-0.071125045
101	0x3d047a8c	0.032343432
102	0xbd907a9d	-0.070546366
103	0x3d9906e5	0.07472018
104	0x3dfb6edb	0.122770034
105	0x3c45c378	0.012070529
106	0xbda235fc	-0.07920453
107	0x3d047ce4	0.032345667
108	0x3e001624	0.12508446
109	0x3cf50abd	0.029912347
110	0x3dbf6c65	0.093468465
111	0xbca75077	-0.02042411
112	0xbd8029a7	-0.062579446
113	0x3dde8607	0.108654074
114	0x3d2c6631	0.042089645
115	0x3d9c2a61	0.07625271
116	0x3de0c56f	0.109751575
117	0xbde1478a	-0.10999973
118	0xbdb58ea2	-0.08865096
119	0xbe1ae219	-0.15125312
120	0xbd94a8ba	-0.072587445
121	0x3d3cc317	0.04608449
122	0x3d476e95	0.048689444
123	0x3d5ed71c	0.054404363
124	0x3daa8d45	0.08327726
125	0xbc1c59c6	-0.009542888
126	0xbdcb17c6	-0.09916644
127	0x3c663c28	0.014052428
128	0x3cdccc81	0.026952984
129	0x3dbe122c	0.0928081
130	0xbd9a99b2	-0.07548846
131	0x3d0a4c4d	0.033764172
132	0x3dfc6c34	0.123253256
133	0x3ddfce81	0.10928059
134	0x3de4ae31	0.11166037
135	0xbdadc1c6	-0.08484225
136	0x3a246de0	0.0006272476
137	0xbdb51d4b	-0.08843478
138	0xbd02f3d3	-0.03197081
139	0xbbbe2da3	-0.00580378
140	0xbd037193	-0.032090735
141	0xbdefe74b	-0.117140375
142	0x3deed1fe	0.116611466
143	0x3d5fa088	0.054596454
144	0x3d8beae9	0.06831915
145	0xbd9be984	-0.07612899
146	0x3dec933d	0.11551521
147	0xbb3ca910	-0.0028787293
148	0x3dca0d1c	0.09865782
149	0x3c87b6a1	0.016566576
150	0xbc0cd706	-0.008596187
151	0x3d711a21	0.05886281
152	0xbdbe14a2	-0.09281279
153	0x3d24c5b7	0.040227618
154	0xbd2e8b24	-0.042613164
155	0x3cead879	0.028667675
156	0xbbb30ab7	-0.005463924
157	0x3d751801	0.059837345
158	0xbd93c670	-0.07215583
159	0xbda1005f	-0.07861399
160	0x3da950e0	0.08267379
161	0xbcf13125	-0.02944238
162	0xbd37d7cc	-0.044883534
163	0x3bd52e9d	0.006505801
164	0xbd94c0c6	-0.07263331
165	0xbdebe6f0	-0.11518657
166	0x3dc984fa	0.098398164
167	0xbdd32faa	-0.103118256
168	0xbdb2f442	-0.08737995
169	0xbd94140d	-0.07230387
170	0xbddd4e8a	-0.10805996
171	0xbdce98bb	-0.10087725
172	0xbd3ee42a	-0.046604313
173	0xbde9c6a0	-0.11414838
174	0x3cfe38d7	0.031032963
175	0x3c830ce4	0.015997358
176	0x3dafb591	0.08579553
177	0xbdb5c9b5	-0.08876363
178	0x3cd62205	0.026139269
179	0x3da39caa	0.07988866
180	0x3d035e44	0.03207232
181	0x3dee9cbc	0.116509885
182	0x3c5b6e8b	0.013393055
183	0xbd62d3e1	-0.055377845
184	0x3d82a634	0.06379357
185	0x3dcb74a8	0.0993436
186	0xbc924719	-0.017856168
187	0xbcbf33d1	-0.023340138
188	0x3d5dea47	0.054178502
189	0x3db8d6d1	0.09025348
190	0xbd4986ad	-0.049200702
191	0xbc46dc9c	-0.012137558
192	0xbda44d31	-0.080225356
193	0x3c01963e	0.007909356
194	0x3cb6af71	0.022300454
195	0xbdbca453	-0.0921103
196	0x3bb9fc4b	0.0056758276
197	0xbd0fd42c	-0.035114452
198	0x3da81817	0.0820772
199	0xbe18a53f	-0.14906786
200	0xbc202ea3	-0.009776744
201	0x3c812a3f	0.015767215
202	0x3dd9ba1a	0.10631199
203	0x3dca1ce2	0.0986879
204	0x3ceaa52c	0.028643213
205	0x3de1f476	0.11032955
206	0x3dc66b39	0.0968842
207	0xbdf293d2	-0.11844601
208	0xbe11b79b	-0.14230196
209	0xbd75856b	-0.05994169
210	0x3de99517	0.1140539
211	0x3dc8f174	0.098116785
212	0xbdc529b8	-0.09627098
213	0x3dd5d1e5	0.10440425
214	0xbd951875	-0.072800554
215	0x3d797910	0.06090647
216	0x3de332fe	0.1109371
217	0xbdfaf072	-0.122528926
218	0xbd73865c	-0.059454307
219	0xbcd08e4f	-0.025458483
220	0xbd0d9100	-0.03456211
221	0xbd972086	-0.0737925
222	0x3df0d347	0.11759048
223	0xbdc439b5	-0.09581319
224	0xba57274b	-0.0008207454
225	0xbc6d1d60	-0.014472336
226	0x3d1e359b	0.03862534
227	0x3d0c33da	0.034229137
228	0xbe0befdb	-0.13665716
229	0xbdcb772d	-0.0993484
230	0xbbbc6202	-0.005748988
231	0xbd5432d1	-0.051806275
232	0xbc7ae432	-0.015313195
233	0xbd88e2aa	-0.06683858
234	0xbd3808ce	-0.04493027
235	0xbdc93c83	-0.09825995
236	0xbde4717e	-0.111544594
237	0x3c88db7a	0.016706217
238	0x3d125847	0.03572872
239	0xbdc52814	-0.09626785
240	0xbd99132e	-0.07474361
241	0xbccbc2c6	-0.024873149
242	0xbda14b26	-0.078756616
243	0xbd3da428	-0.04629913
244	0x3d09b94a	0.03362397
245	0xbc0f67ef	-0.008752807
246	0xbc4b0ab5	-0.0123926895
247	0xbbfa4bc6	-0.0076384274
248	0xbcf82840	-0.03029263
249	0x3c67fbd0	0.014159158
250	0xbd9084af	-0.070565574
251	0xbdcdb85c	-0.100449294
252	0xbca7e0a2	-0.020492855
253	0x3ce44e1a	0.027869273
254	0xbc00d3e0	-0.007863015
255	0xbcc9427a	-0.024567831

weight_hh f4 [256, 64]
0	0xbdc245cd	-0.0948597
1	0x3d3cf7e7	0.046134856
2	0xbda9d7a9	-0.08293087
3	0xbd96b29f	-0.07358288
4	0x3db34862	0.0875404
5	0xbd481351	-0.048846547
6	0xbdb1b88a	-0.08677776
7	0xbdd2d3c5	-0.10294298
8	0xbdeb84dd	-0.11499951
9	0xbe114b01	-0.14188768
10	0x3c766621	0.015038998
11	0xbca34578	-0.019930586
12	0xbdaade34	-0.08343163
13	0x3d0ae24e	0.033907227
14	0x3d555149	0.052079473
15	0xbdad80ec	-0.084718555
16	0x3d9ab0c0	0.07553244
17	0xbdbe57b3	-0.09294071
18	0x3e03a8d0	0.12857366
19	0xbcfd5a59	-0.03092687
20	0xbe038e55	-0.12847264
21	0x3c688e6d	0.014194113
22	0xbdd53b94	-0.10411754
23	0x3d95e212	0.0731851
24	0xbde095f6	-0.10966103
25	0xbd611914	-0.054955557
26	0xbdc8a2a9	-0.0979665
27	0x3ce6c674	0.028170802
28	0xbbf1eba2	-0.007382826
29	0xbd6d37d7	-0.05791458
30	0x3dace401	0.08441926
31	0xbcbd039f	-0.023073016
32	0x3d8028bb	0.06257769
33	0x3dd8624b	0.10565623
34	0xbd2d117b	-0.042253
35	0xbc0fb634	-0.008771468
36	0xbd69fbde	-0.057124965
37	0xbdf2913d	-0.11844108
38	0xbda157df	-0.07878088
39	0x3df7e4b9	0.12104172
40	0xbd95a66d	-0.07307134
41	0xbe02bc5d	-0.12767167
42	0x3d578e01	0.05262566
43	0x3dad75e3	0.08469751
44	0x3e1ba58d	0.15199871
45	0x3de421a0	0.11139226
46	0xbdcc7125	-0.09982518
47	0x3dad61db	0.0846593
48	0x3dc1d378	0.094641626
49	0x3d1c82c5	0.03821065
50	0xbd8ce56c	-0.06879696
51	0xbd0ad51a	-0.033894636
52	0xbd61312c	-0.054978535
53	0xbd3ef6da	-0.046622135
54	0xbe088f18	-0.13335836
55	0x3c6b8a36	0.014376214
56	0xbdc8852f	-0.09791028
57	0x3d034b1d	0.032054055
58	0x3dd175a5	0.10227517
59	0xbd4f5635	-0.050619323
60	0xbd94fd28	-0.07274848
61	0xbdddfe38	-0.10839504
62	0xbd85bda0	-0.06530309
63	0x3d592894	0.053017214
64	0xbd9b36bf	-0.07578801
65	0x3e1b263a	0.15151301
66	0xbcb17402	-0.021661762
67	0xbd99aed1	-0.07504047
68	0x3c0723a7	0.008248246
69	0x3df1417e	0.1178007
70	0x3de8823d	0.11352966
71	0x3dab4253	0.0836226
72	0x3dfac33c	0.12244269
73	0xbdbb9c8e	-0.0916072
74	0xbc862ce0	-0.01637882
75	0x3e0c2eeb	0.13689773
76	0x3ccd2e1c	0.0250464
77	0xbdb50a3f	-0.08839845
78	0x3dcd8614	0.10035339
79	0x3df2256b	0.11823543
80	0xbbe58495	-0.0070043304
81	0x3e281742	0.16415122
82	0x3e19c7f7	0.15017687
83	0xbdb26577	-0.08710759
84	0x3d78f613	0.06078155
85	0x3cf65cbc	0.030073516
86	0xbddf920f	-0.1091653
87	0x3d383b27	0.044978287
88	0x3c91d2c5	0.017800698
89	0xbdcf7742	-0.101301685
90	0x3d88b9c4	0.06676057
91	0xbce2bab9	-0.027676927
92	0xbdaf398b	-0.08555897
93	0xbca948b3	-0.020664549
94	0x3db0b98d	0.08629141
95	0xbd319025	-0.043350358
96	0x3d1693e6	0.03676214
97	0x3bd6d1c6	0.0065557687
98	0xbdd9a1ea	-0.10626586
99	0x3dc3e015	0.09564225
100	0xbd2b0334	-0.0417511
101	0xbd98e8c0	-0.074662685
102	0xbdebfa4e	-0.11522351
103	0x3c284ae4	0.010271762
104	0xbd5d113b	-0.05397151
105	0x3db9b182	0.0906706
106	0x3d2a19c5	0.041528482
107	0x3dce7365	0.100806035
108	0xbd59d5fe	-0.053182594
109	0xbe04b0ef	-0.1295812
110	0xbddb0071	-0.106934436
111	0xbe0873f9	-0.1332549
112	0x3de07816	0.109604046
113	0x3d36e9f2	0.0446567
114	0x3e11463a	0.14186946
115	0xbccbc32e	-0.024873342
116	0x3d8e6c8e	0.06954299
117	0xbd81440a	-0.063118055
118	0x3e08d60f	0.13362907
119	0xbc4a237f	-0.0123375645
120	0xbd7d01cc	-0.06176929
121	0x3dc99176	0.098421976
122	0xbcd90828	-0.026493147
123	0xbdc4281b	-0.09577962
124	0xbcd2d262	-0.025735084
125	0x3deacd4f	0.11464941
126	0xbe06ad89	-0.13152136
127	0x3d829bfc	0.06377408
128	0x3d64b29a	0.05583439
129	0x3dec5656	0.11539905
130	0xbd7df096	-0.06199702
131	0x3c092b51	0.008372144
132	0x3de86525	0.11347417
133	0xbb57ab70	-0.0032908581
134	0x3e48f512	0.19624737
135	0xbd449fff	-0.048004147
136	0x3c905df2	0.017622922
137	0xbdafa5ae	-0.08576523
138	0x3c8036ae	0.015651073
139	0xbd854d95	-0.06508938
140	0x3df3336d	0.11875043
141	0xbe0a28bb	-0.134921
142	0x3cad991a	0.021191169
143	0x3d9bfd72	0.076167
144	0x3e003394	0.12519675
145	0x3da35810	0.07975781
146	0x3dc31da3	0.09527137
147	0xbde3fa20	-0.11131692
148	0x3d6c8c55	0.05775102
149	0xbde13ceb	-0.10997947
150	0xbd0e2614	-0.034704283
151	0x3dbe4615	0.09290711
152	0x3e22032c	0.15821522
153	0x3e119f37	0.14220892
154	0xbd896970	-0.06709564
155	0x3db78e36	0.089626715
156	0x3dcdb6c8	0.100446284
157	0x3df6c43d	0.12049148
158	0x3dd635ed	0.10459504
159	0x3df1c2b7	0.11804717
160	0x3d8b07b2	0.06788577
161	0xbd9db8ff	-0.07701301
162	0xbdd2cbeb	-0.102928005
163	0xbd7d5013	-0.061843943
164	0xbd8fd2bd	-0.07022617
165	0xbd0a7c7b	-0.03381012
166	0xbdf24439	-0.11829419
167	0x3d72e5ba	0.059301116
168	0x3d103177	0.035203423
169	0xbd7e374c	-0.062064454
170	0xbb512959	-0.0031915514
171	0xbd3a7130	-0.0455181
172	0x3e0ec810	0.13943505
173	0x3cc44916	0.023960631
174	0xbd0c516c	-0.034257337
175	0xbd99243b	-0.074776135
176	0x3d3de418	0.046360105
177	0x3dadabd8	0.08480042
178	0x3e2a65ad	0.16640349
179	0xbdea69f2	-0.11445989
180	0x3cd362cb	0.025803944
181	0xbd9370a2	-0.071992174
182	0xbdf245a9	-0.11829693
183	0xbdcd6874	-0.100296885
184	0xba49b55c	-0.0007694566
185	0xbb710a84	-0.003677995
186	0x3d5ce83a	0.053932406
187	0xbc2b581f	-0.010458021
188	0x3cffbaeb	0.03121706
189	0x3cc63d6e	0.024199214
190	0xbd8ad908	-0.06779677
191	0xbdf4ab1f	-0.11946701
192	0x3da876ff	0.08225822
193	0x3d7a7c53	0.06115372
194	0xbcd2f1af	-0.02575001
195	0xbdb3c2c0	-0.0877738
196	0x3d3ba28e	0.04580932
197	0x3c8f6eb0	0.017508835
198	0x3e3ab2e8	0.1823231
199	0xbd3bb68f	-0.0458284
200	0xbcc2e6e3	-0.023791736
201	0xbda62380	-0.0811224
202	0xbcfcf7cc	-0.030879878
203	0x3e8c1241	0.27357677
204	0x3d896343	0.06708386
205	0x3d1a42f3	0.037661504
206	0xbbc4a863	-0.0060015186
207	0xbd88e93f	-0.06685113
208	0x3d7bc167	0.06146374
209	0x3daeed17	0.08541315
210	0xbe0a98ee	-0.135349
211	0x3de0b227	0.1097148
212	0x3e066957	0.13126121
213	0x3bf4e65d	0.0074737505
214	0xbc5a1d42	-0.01331264
215	0x3e0898ad	0.13339491
216	0x3d1c9597	0.038228597
217	0xbae6fb1d	-0.0017622445
218	0x3d839b59	0.064261146
219	0xbd1c5c1b	-0.038173776
220	0xbe42bfb2	-0.19018438
221	0xbe088d49	-0.13335146
222	0x3d8b2c81	0.06795598
223	0x3da749c5	0.08168367
224	0x3dc765ae	0.09736191
225	0x3d4fe1c0	0.0507524
226	0x3e059682	0.13045695
227	0xbd6426ff	-0.055701252
228	0x3d70156d	0.058614183
229	0x3daf7550	0.085672975
230	0x3de0848f	0.109627835
231	0xbca18ad8	-0.019719526
232	0xbd8dbca2	-0.069207445
233	0x3d036f90	0.032088816
234	0x3d4298dd	0.047509063
235	0xbc877893	-0.016536986
236	0x3c612f4f	0.013744189
237	0xbda1f97c	-0.079089135
238	0xbe0bcc2e	-0.13652107
239	0xbd438633	-0.047735404
240	0x3de1e41b	0.11029836
241	0xbcb3953e	-0.02192175
242	0x3de1acb8	0.110192716
243	0xbcaed234	-0.021340467
244	0xbd7d2cbf	-0.06181025
245	0xbdb3efb1	-0.08785952
246	0xb5b5b200	-1.3537356e-06
247	0x3dfa3a87	0.122181945
248	0xbd67faac	-0.056635544
249	0x3dee59b5	0.11638204
250	0x3dd296c9	0.10282666
251	0xbde8ae5d	-0.11361382
252	0xbdb985ab	-0.09058698
253	0x3e175b06	0.14780816
254	0xbc4fe334	-0.012688447
255	0xbd8654cb	-0.06559142

bias_ih f4 [256]
0	0x3d2061db	0.039155822
1	0x3d3242e9	0.04352084
2	0xbdcd9ff6	-0.10040276
3	0xbc9eb70f	-0.019374399
4	0xbdacb3a6	-0.08432703
5	0xbdc284b7	-0.094979696
6	0xbd8264e5	-0.063669
7	0x3c2efc79	0.010680311
8	0xbd8c48d5	-0.06849829
9	0xbe051ad6	-0.12998518
10	0xbd5c2ad3	-0.053751778
11	0x3e04de09	0.12975325
12	0x3d122ad3	0.03568537
13	0xbcca229b	-0.024674704
14	0xbda2e9b6	-0.07954733
15	0x3d132271	0.035921518
16	0x3dac5896	0.08415334
17	0x3dc5099f	0.09620976
18	0x3dfb01c8	0.12256199
19	0x3dc1b90e	0.094591245
20	0x3d97b599	0.07407684
21	0xbcc7224c	-0.024308346
22	0x3ddc0796	0.107436344
23	0xbdede8b9	-0.11616654
24	0xbc9163fe	-0.017747875
25	0xbd12028f	-0.03564697
26	0x3d1daf5d	0.038497318
27	0x3c47f7fe	0.012205122
28	0xbc6e21c0	-0.014534414
29	0xbd89ada2	-0.06722571
30	0x3d31c880	0.043404102
31	0x3d89b12b	0.06723245
32	0x3ba19102	0.0049306164
33	0xbd749047	-0.059707906
34	0xbd144109	-0.036194835
35	0x3e12ae7a	0.1432437
36	0x3dc7ec67	0.09761887
37	0xbdaddde7	-0.0848959
38	0x3e076ced	0.13225146
39	0x3d80048b	0.062508665
40	0xbdc0f13c	-0.09421012
41	0xbd88bf69	-0.066771336
42	0xbdbfc98a	-0.093646124
43	0xbd06945a	-0.032856323
44	0x3cefecb9	0.029287683
45	0xbdf26048	-0.118347704
46	0x3e08ebbf	0.1337118
47	0x3d679338	0.056536883
48	0x3d64f6dd	0.05589949
49	0xbda89fe5	-0.082336225
50	0xbdb71cea	-0.08941062
51	0xbde85e90	-0.11346161
52	0x3d9667a9	0.0734399
53	0xbd9dd4fc	-0.07706639
54	0xbdcd4061	-0.10022045
55	0x3d859efd	0.06524465
56	0x3c57bb23	0.013167175
57	0x3dc6f5c4	0.09714845
58	0x3d3a42c7	0.04547384
59	0x3df62368	0.12018472
60	0xbd157828	-0.036491543
61	0x3deb1d95	0.11480252
62	0xbd17eca6	-0.03709092
63	0xbd5f2f18	-0.05448827
64	0x3e09c551	0.13454176
65	0xbd9baff2	-0.07601918
66	0x3d2fb6c6	0.042898916
67	0xbd1f2e6d	-0.038862634
68	0xbd79b177	-0.06096026
69	0x3dcc06a4	0.09962204
70	0x3d90103f	0.07034349
71	0x3dc12185	0.094302215
72	0x3e1e5b1a	0.1546444
73	0xbd38ccf2	-0.045117326
74	0x3d20276a	0.03910009
75	0x3d643040	0.055710077
76	0x3e344684	0.17605025
77	0xbc723258	-0.014782511
78	0xbb12cf75	-0.0022401486
79	0x3dde9edb	0.10870143
80	0x3c800c9a	0.015631009
81	0x3e0b4e51	0.13604094
82	0x3c93adf0	0.018027276
83	0x3db4f446	0.08835654
84	0xbca09ffe	-0.01960754
85	0xbd6628c6	-0.05619123
86	0x3d5396b0	0.05165738
87	0x3c5bb25a	0.013409222
88	0xbd3cc443	-0.046085607
89	0xbdde46c1	-0.10853339
90	0x3d8c22d4	0.068425804
91	0xbcd92b0f	-0.02650979
92	0x3dd95994	0.10612789
93	0x3e0440cb	0.12915342
94	0x3da74973	0.08168306
95	0xbd045cc4	-0.03231503
96	0x3e00b7ac	0.12570065
97	0x3e0898c2	0.13339522
98	0x3c6828ba	0.014169866
99	0x3d9dfc46	0.07714133
100	0xbd8ee3b0	-0.06977022
101	0x3e2746fc	0.16335672
102	0x3da89f37	0.08233493
103	0x3c5df302	0.013546707
104	0xbd5630c6	-0.052292608
105	0x3d9d4a0e	0.076801404
106	0x3e143264	0.14472347
107	0xbd10b593	-0.035329413
108	0x3d45fba2	0.04833568
109	0xbd5daf4d	-0.054122258
110	0x3e28bf1e	0.16479155
111	0xbce2b86f	-0.027675835
112	0x3de8745a	0.11350317
113	0xbca1babb	-0.01974236
114	0x3dd3fbbc	0.10350749
115	0xbddd773f	-0.1081376
116	0x3c917d95	0.017760077
117	0xbd8b4bf4	-0.06801596
118	0xbdb2d938	-0.087328374
119	0xbd8624bb	-0.065499745
120	0xbdada263	-0.084782384
121	0x3c4caa23	0.012491736
122	0x3d68dec9	0.05685309
123	0xbcab6b9b	-0.020925334
124	0x3e2fd0d9	0.17169513
125	0x3c987192	0.018608842
126	0x3d33e939	0.04392359
127	0x3d024d93	0.03181226
128	0xbda04582	-0.078257576
129	0xbdee2f97	-0.11630171
130	0x3d959d80	0.07305431
131	0xbd8a6718	-0.06757945
132	0x3c9cb384	0.019128568
133	0xbd220496	-0.039555155
134	0xbdc20fa0	-0.094756365
135	0xbdb20b07	-0.086935095
136	0xbde4ff74	-0.11181536
137	0x3de031ee	0.10947023
138	0xbddecb6e	-0.10878645
139	0x3daee313	0.08539405
140	0x3d4f6b87	0.050639655
141	0xbce71699	-0.028209018
142	0x3de9ec75	0.11422054
143	0xbdac0303	-0.08399012
144	0xbc8b7408	-0.017023101
145	0x3ddff635	0.10935632
146	0x3dd92cc7	0.10604244
147	0x3d8c0b67	0.06838112
148	0xbd300df1	-0.042982046
149	0xbdca298d	-0.098712064
150	0x3dd387fb	0.103286706
151	0x3d25039f	0.040286656
152	0xbda5ffae	-0.08105408
153	0xbdda98ca	-0.106736735
154	0x3d010f33	0.031508636
155	0xbc8a0eee	-0.016852822
156	0xbd21cfd6	-0.03950485
157	0x3de198a3	0.11015441
158	0x3d8782e4	0.06616762
159	0xbdb59ded	-0.088680126
160	0x3d5d76f3	0.054068517
161	0x3d4307dc	0.047614917
162	0xbde5a07d	-0.11212251
163	0xb9f652b3	-0.00046982392
164	0xbd62831a	-0.05530081
165	0xbe01cc7b	-0.1267566
166	0x3cd1c27b	0.02560543
167	0x3dfbb67d	0.12290666
168	0xbd3e9f6f	-0.046538766
169	0x3d16b975	0.03679796
170	0x3d81c130	0.06335676
171	0x3dffe22a	0.12494309
172	0xbe320434	-0.17384416
173	0xbb949ca5	-0.004535275
174	0x3db73ed7	0.089475326
175	0x3d80825a	0.062748626
176	0xbddd0d11	-0.10793508
177	0xbc02c783	-0.007982138
178	0xbdbb0ae2	-0.09132935
179	0xbc816ef7	-0.015799982
180	0x3d0b441d	0.034000505
181	0xbd0ae7f3	-0.03391261
182	0x3b657ae5	0.0035015878
183	0xbd7d9783	-0.06191207
184	0x3db7f9f8	0.08983225
185	0xbd752db8	-0.059858054
186	0xbd36cae3	-0.04462708
187	0xbdb61ecd	-0.088925935
188	0x3d0d5a53	0.034509968
189	0xbe0428c2	-0.12906173
190	0x3cdbd2fa	0.026834
191	0x3dc51228	0.09622604
192	0xbb3ef81f	-0.002913959
193	0x3dd402fc	0.10352132
194	0xbc35955d	-0.011082974
195	0x3d9ddc49	0.07708032
196	0x3d7ecaaa	0.062204994
197	0x3de3e3d4	0.11127439
198	0x3e1a9d5d	0.15099092
199	0x3db5c65a	0.08875723
200	0x3d117217	0.035509195
201	0x3d02d1c5	0.031938333
202	0x3e02c808	0.12771618
203	0xbd91f058	-0.0712592
204	0x3c20d257	0.009815774
205	0x3cebabbf	0.028768418
206	0x3c8b31de	0.016991552
207	0x3df66dd2	0.12032665
208	0xbd41cdd3	-0.04731543
209	0xbd517ae1	-0.051142577
210	0xbcabbc67	-0.02096386
211	0x3c5b0776	0.013368478
212	0x3b88ff7d	0.004180847
213	0x3dc8d7ca	0.098067835
214	0x3de4a9c3	0.11165192
215	0x3d6ef8aa	0.058342613
216	0x3e2a770a	0.16646972
217	0x3e0cf60f	0.13765739
218	0x3d82e72f	0.06391751
219	0x3ddc8dab	0.107692085
220	0x3dff1155	0.12454478
221	0x3cbf58f5	0.023357848
222	0xbd3a6fe2	-0.045516856
223	0xbd622dec	-0.055219576
224	0x3c5e347a	0.013562316
225	0x3ddf5957	0.10905712
226	0x3e11ecbb	0.14250462
227	0xbb23f261	-0.0025016295
228	0x3c8c9362	0.017160121
229	0xbd65cea6	-0.05610528
230	0xbc591a23	-0.01325086
231	0x3dcdee1d	0.10055182
232	0xbce06084	-0.027389772
233	0x3ce8a8f7	0.028400881
234	0xbc2f8281	-0.010712267
235	0x3ac9aa97	0.0015385923
236	0xbcb354af	-0.021890966
237	0xbdc13f51	-0.09435905
238	0xbbcc69e0	-0.006238207
239	0x3e207623	0.15670066
240	0xbdb8cd36	-0.09023516
241	0x3d382fd8	0.044967502
242	0x3e01987a	0.12655821
243	0xbda5fc2e	-0.0810474
244	0x3d97f121	0.074190386
245	0x3c812e59	0.01576917
246	0x3dde2620	0.108471155
247	0x3cac1a07	0.021008505
248	0xbd6e48c2	-0.058174856
249	0x3d0d3695	0.03447588
250	0x3de1cbb2	0.1102518
251	0x3d9c64da	0.076364234
252	0x3c76ea38	0.015070491
253	0x3e077723	0.13229041
254	0xbdbeee0d	-0.09322748
255	0x3dfabe49	0.12243325

bias_hh f4 [256]
0	0x3d7764e5	0.060398955
1	0x3d91708e	0.07101546
2	0x3d6bf8cc	0.057610318
3	0xbd474b66	-0.04865589
4	0xbdd55454	-0.10416475
5	0x3cd43b70	0.025907248
6	0x3ab7a5ef	0.0014011244
7	0x3c968312	0.018373046
8	0xbdfe54af	-0.12418496
9	0x3dad0cf2	0.08449735
10	0x3ddd130f	0.10794651
11	0xbadd42e3	-0.0016880896
12	0x3d27f0ab	0.041001003
13	0x3d8f052a	0.06983407
14	0x3d0f3ab5	0.034968097
15	0x3dbab67d	0.09116838
16	0xbd764a91	-0.060129706
17	0x3dc1c7b1	0.09461916
18	0x3d830096	0.06396596
19	0x3dd67ac4	0.104726344
20	0x3d0211e6	0.03175535
21	0xbdef4a53	-0.11684098
22	0xbd625205	-0.055254
23	0xbdc0993f	-0.094042294
24	0xbc1c4a9d	-0.009539274
25	0xbda053ba	-0.078284696
26	0xbd77156b	-0.06032316
27	0x3dd7b799	0.10533065
28	0xbc9d6ea4	-0.019217797
29	0xbd0ab66c	-0.033865377
30	0xbd7851d7	-0.060624924
31	0xbd257c00	-0.04040146
32	0xbe0fea99	-0.14054336
33	0xbcaaf6a4	-0.02086956
34	0x3cdda0f6	0.027054291
35	0x3e0543e6	0.13014182
36	0x3db3698d	0.087603666
37	0xbcdfa4d2	-0.027300272
38	0x3e0cdc15	0.1375583
39	0xbd988056	-0.07446353
40	0xbd2e202d	-0.042511154
41	0xbdfff850	-0.12498534
42	0x3c9e247c	0.019304506
43	0x3d61fcb6	0.055172645
44	0x3d719e67	0.058988955
45	0x3cbff0ff	0.023430346
46	0x3d695392	0.056964464
47	0x3cc3e7e6	0.023914289
48	0xbc933234	-0.017968275
49	0x3e0c7849	0.1371776
50	0xbdcba7ea	-0.099441364
51	0xbd1a2c97	-0.03764018
52	0x3b48b835	0.0030627374
53	0x3dd78ed2	0.10525288
54	0x3dbc7035	0.09201089
55	0x3d2bbdd1	0.04192907
56	0x3dfea39a	0.12433548
57	0xbe1bd273	-0.15216999
58	0x3d0fccbf	0.03510737
59	0x3c9c29f9	0.019062983
60	0x3c8d005e	0.01721209
61	0x3c48aed6	0.012248715
62	0xbd7014cb	-0.05861358
63	0x3d919069	0.07107622
64	0x3c99ec56	0.018789452
65	0x3e172749	0.1476108
66	0xbdf14d01	-0.117822655
67	0xbd6efa12	-0.058343954
68	0xbde7eb2c	-0.11324152
69	0x3cde53c4	0.027139552
70	0x3d314c57	0.043285694
71	0xbdb84417	-0.08997362
72	0xbd264201	-0.04059029
73	0xbdd217af	-0.102584235
74	0x3da65bc9	0.081229754
75	0x3e118e38	0.14214408
76	0x3c614685	0.013749723
77	0x3d9cc043	0.076538585
78	0x3d4ed2dc	0.05049406
79	0xbdb8c429	-0.090217896
80	0x3c980731	0.018558117
81	0x3e080f3f	0.13287066
82	0x3c976ce0	0.018484533
83	0x3dd89746	0.10575728
84	0xbcbb1500	-0.022837162
85	0xbdbfab20	-0.093588114
86	0xbca442ed	-0.020051444
87	0xbdcb1fbe	-0.09918164
88	0x3cb2a10b	0.021805307
89	0xbd2cbf5c	-0.042174682
90	0x3be279af	0.0069114785
91	0xbd991878	-0.0747537
92	0x3bc5a88b	0.006032055
93	0x3daca212	0.0842935
94	0x3cc4f335	0.024041751
95	0xbd0e24a6	-0.03470292
96	0xbd9fc04b	-0.07800349
97	0xbd794bee	-0.060863428
98	0xbd58385d	-0.052788127
99	0x3debd5a4	0.11515358
100	0x3d462100	0.048371315
101	0x3e0183e3	0.12647967
102	0xbb9fb025	-0.004873293
103	0x3de1a7cf	0.11018335
104	0xbcc63dd2	-0.0241994
105	0xbb9111a4	-0.0044271518
106	0xbcda15cd	-0.026621724
107	0x3d4fa80d	0.050697375
108	0xbd5a5f76	-0.053313695
109	0x3cfc6a24	0.03081233
110	0xbc9f1eb6	-0.019423824
111	0x3e0b724b	0.13617818
112	0xbb67e7aa	-0.0035385885
113	0x3ce80dd5	0.028326908
114	0x3e22d1fb	0.15900414
115	0xbdbb3d5b	-0.09142562
116	0x3e1af994	0.15134269
117	0xbdd3c038	-0.10339397
118	0x3d8bc222	0.06824137
119	0x3dc9974b	0.0984331
120	0x3e07d9d8	0.13266695
121	0x3dcf58c7	0.10124355
122	0x3dc4ea26	0.09614973
123	0xbcb846ab	-0.022494635
124	0x3e0fc4d1	0.14039923
125	0x3deceefc	0.1156902
126	0x3de2d0e9	0.11075003
127	0x3d8c65e2	0.0685537
128	0xbdb1765a	-0.08665152
129	0xbd0b0448	-0.03393963
130	0x3d05c935	0.03266259
131	0x3d8e070a	0.06934936
132	0xbe1dbdff	-0.15404509
133	0xbd3d3922	-0.046197064
134	0xbcbe8b99	-0.023259925
135	0x3d672aba	0.05643723
136	0xbdea840c	-0.11450967
137	0xbcc552b2	-0.024087284
138	0x3c933ed4	0.017974295
139	0xbdadf966	-0.084948346
140	0x3d209b32	0.039210506
141	0xbd843b7b	-0.064566575
142	0xbdec80c1	-0.11547995
143	0xbd39ee61	-0.04539335
144	0xbd85e521	-0.065378435
145	0xbc2d1050	-0.010562971
146	0x3d916387	0.070990615
147	0xbddad07d	-0.10684297
148	0x3d8a663d	0.06757782
149	0x3dadfbb1	0.08495272
150	0x3ceb69bc	0.028736942
151	0xbd01870d	-0.031622935
152	0xbdb2608c	-0.08709821
153	0xbdd59fd7	-0.10430878
154	0x3cf8da44	0.030377515
155	0xbd98e6df	-0.0746591
156	0x3d5e966e	0.05434268
157	0x3de1e31d	0.110296465
158	0x3dc71446	0.09720664
159	0xbdef9329	-0.116979904
160	0xbde02719	-0.10944957
161	0xbd99c626	-0.07508497
162	0x3de90e42	0.113796726
163	0xbd9f1228	-0.07767135
164	0x3bf5a3ef	0.007496349
165	0x3d875df4	0.06609717
166	0x3d0d4265	0.034487147
167	0x3d4fdb2e	0.050746135
168	0x3cf8a1da	0.030350614
169	0x3d69e9e3	0.057107817
170	0xbb83a55d	-0.0040175156
171	0xbb2889f7	-0.0025717
172	0x3cd44774	0.025912978
173	0xbc64209e	-0.013923792
174	0x3d48a2fd	0.048983563
175	0xbb87c821	-0.0041437303
176	0xbd12048c	-0.035648867
177	0xbded947c	-0.11600587
178	0xbd8899fe	-0.06669997
179	0x3ddcbb23	0.10777881
180	0xbdc15a99	-0.09441108
181	0xbdca5bdd	-0.09880803
182	0x3c6893c9	0.014195391
183	0xbccf24ef	-0.025286166
184	0xbd21f734	-0.039542392
185	0x3d6fa852	0.058510132
186	0x3da217b3	0.079146765
187	0x3d8ea8f5	0.0696582
188	0x3db0c463	0.08631208
189	0xbdbf3344	-0.0933595
190	0x3d93606c	0.071961254
191	0xbc27e90a	-0.010248432
192	0x3daacbc7	0.08339649
193	0x3db8a761	0.090163
194	0xbd44c12c	-0.048035786
195	0xbd38f9d6	-0.045160137
196	0x3dfe5f18	0.124204814
197	0x3b5e7bad	0.0033948228
198	0x3e3f6e25	0.1869436
199	0x3d8671ad	0.06564651
200	0x3d30ebb8	0.04319355
201	0x3d359e17	0.04434022
202	0xbcd26c55	-0.025686422
203	0xbda237b7	-0.07920783
204	0x3df5037d	0.11963556
205	0xbdbaa38e	-0.09113227
206	0x3d7c1e8e	0.061552577
207	0x3ded5e12	0.11590208
208	0x3deefe4c	0.11669597
209	0xbd4a95dd	-0.049459327
210	0x3dff4a89	0.12465388
211	0x3deb2fff	0.11483764
212	0x3e266bca	0.16252056
213	0x3ddc060c	0.10743341
214	0xbd5657b1	-0.052329723
215	0x3d65d1d8	0.056108326
216	0x3e2ba37e	0.16761586
217	0x3e150f24	0.14556557
218	0x3d903bbd	0.07042644
219	0x3e30470e	0.17214605
220	0x3e222674	0.15834981
221	0x3da83875	0.08213893
222	0x3e12b1e6	0.14325675
223	0xbd09d491	-0.033649985
224	0x3e12fdcc	0.14354628
225	0x3d9b17bc	0.07572886
226	0x3df1ff8e	0.11816321
227	0xbc9828ec	-0.0185742
228	0xbd742acd	-0.05961113
229	0xbd1109c6	-0.03540971
230	0x3c8f5352	0.017495785
231	0xbd04724e	-0.032335572
232	0x3d76494d	0.0601285
233	0xbc033e1f	-0.008010416
234	0x3e30d5cc	0.17269057
235	0x3dc3f124	0.09567478
236	0xbd9d2ce3	-0.07674577
237	0x3d4783bc	0.048709616
238	0xbd32a175	-0.04361101
239	0x3d7b9fc7	0.061431672
240	0xbcde7b7e	-0.027158495
241	0x3c45514f	0.012043311
242	0x3dbc6a8d	0.092000104
243	0xbd40dc1d	-0.047084916
244	0x3e0ecc87	0.13945208
245	0x3d6bb512	0.05754573
246	0x3d86a8bc	0.06575152
247	0x3dd64773	0.104628466
248	0xbc35e7f5	-0.011102666
249	0x3df526c7	0.11970287
250	0x3dbecf8b	0.093169294
251	0x3d64b39a	0.055835344
252	0xbc102819	-0.0087986225
253	0xbd87c80d	-0.066299535
254	0x3da68d5d	0.08132432
255	0xbdcf24a7	-0.10114413

weight f4 [2, 64]
0	0x3c357baf	0.011076852
1	0x3d770a57	0.060312595
2	0x3d89e893	0.06733813
3	0xbe12c97f	-0.14334677
4	0xbdff911c	-0.12478849
5	0xbcbbe79c	-0.022937588
6	0xbe00a4eb	-0.12562911
7	0xbdd4f013	-0.10397353
8	0x3d8c9964	0.068651944
9	0xbdd6c97c	-0.10487649
10	0xbd99c853	-0.07508912
11	0x3e241657	0.16024147
12	0xbd5de590	-0.054174006
13	0xbdb2e23d	-0.08734558
14	0x3cb9d39a	0.022683907
15	0x3d974c8f	0.07387649
16	0xbdfd26c1	-0.12360907
17	0x3d219752	0.03945095
18	0x3c88850f	0.01666501
19	0xbd7ac8a3	-0.0612265
20	0xbdacaa1c	-0.08430883
21	0x3db6d632	0.08927573
22	0xbd811490	-0.0630275
23	0xbd969dda	-0.073543265
24	0xbdcb0c4b	-0.09914454
25	0x3ca289ea	0.019841153
26	0xbd3d8af2	-0.046275087
27	0x3dfeaaf5	0.12434951
28	0x3da34e2c	0.079738945
29	0xbc207344	-0.0097931065
30	0xbd998f65	-0.074980535
31	0xbd06c2c8	-0.0329006
32	0xbdead959	-0.11467237
33	0x3d7d3929	0.06182209
34	0xbda642db	-0.081182204
35	0x3db9d706	0.090742156
36	0xba9d0cd7	-0.0011981976
37	0xbdade71a	-0.08491345
38	0x3e22003f	0.15820406
39	0x3c58c586	0.013230687
40	0x3e2ebb78	0.17063701
41	0x3d6c6beb	0.057720106
42	0x3d89edf5	0.0673484
43	0x3c9ec135	0.019379238
44	0xbd1180f2	-0.035523362
45	0xbd196511	-0.0374499
46	0xbe2ae115	-0.16687424
47	0x3dfb6996	0.12275998
48	0x3d5764eb	0.052586477
49	0x3c1db9cb	0.009626816
50	0x3e1f3b31	0.15549923
51	0x3d2bf348	0.041980058
52	0xbcf51083	-0.0299151
53	0x3c4ad957	0.012380919
54	0x3dcc7bb4	0.09984532
55	0xbe0135b9	-0.1261815
56	0xbba501be	-0.005035608
57	0xbe03ec56	-0.12883124
58	0xbd97bf43	-0.07409527
59	0x3d91196a	0.070849255
60	0xbd8c2160	-0.06842303
61	0xbd51b9a2	-0.051202424
62	0x3c2d8997	0.010591886
63	0xbb1a3eef	-0.0023536047
64	0x3e38c24f	0.18042873
65	0xbdda291b	-0.106523715
66	0x3e67b047	0.22625838
67	0x3da14d23	0.07876041
68	0xbe000cbb	-0.12504856
69	0x3e1082e6	0.14112434
70	0xbdbc7376	-0.0920171
71	0x3dc9238b	0.098212324
72	0x3e236187	0.15955172
73	0xbe0b8f39	-0.13628854
74	0x3dc4dba6	0.09612207
75	0xbe1154d4	-0.14192516
76	0x3dee8038	0.116455495
77	0xbe276b2d	-0.16349478
78	0xbe275ba2	-0.16343549
79	0x3e368ed3	0.1782792
80	0x3e3a99fc	0.18222803
81	0x3e4aa135	0.19788058
82	0x3e3c2fdc	0.18377632
83	0x3e33a2ef	0.17542623
84	0x3e3ea0cd	0.18616028
85	0xbdead93e	-0.11467217
86	0x3dc153aa	0.09439786
87	0x3e374928	0.17899
88	0x3e05937e	0.13044545
89	0x3e250049	0.1611339
90	0xbe63f3eb	-0.22261016
91	0x3dabec60	0.08394694
92	0xbe09313d	-0.13397689
93	0x3e09650f	0.13417457
94	0x3e311b24	0.1729551
95	0x3e14a693	0.14516668
96	0xbe1fb59f	-0.15596627
97	0xbe38b9d5	-0.1803964
98	0xbe6b693b	-0.22989361
99	0xbe1fe6fd	-0.15615459
100	0xbe08b167	-0.13348924
101	0x3e09318e	0.1339781
102	0xbd9a8c0b	-0.07546242
103	0xbe14cb66	-0.14530715
104	0xbc4da096	-0.012550494
105	0x3e046047	0.12927352
106	0xbe1f4d0c	-0.15556735
107	0xbe36720a	-0.1781694
108	0xbe043544	-0.12910944
109	0xbe32b013	-0.1744998
110	0x3d9fb704	0.07798579
111	0xbe0c0510	-0.13673806
112	0x3e416938	0.18887794
113	0xbdd933c7	-0.10605579
114	0xbd9f4c33	-0.07778206
115	0x3e3dd6bb	0.18538944
116	0x3e23da88	0.16001332
117	0x3e22c95f	0.1589713
118	0xbd4e6d2e	-0.05039709
119	0x3e31a820	0.17349291
120	0x3e091f5b	0.13390867
121	0xbe188f18	-0.14898336
122	0xbd8e0a0e	-0.069355115
123	0xbdbf5563	-0.09342458
124	0xbe34e673	-0.17666034
125	0x3e25155a	0.16121426
126	0xbe283b1d	-0.164288
127	0x3e4710d0	0.19440007

bias f4 [2]
0	0xbd7844c1	-0.060612444
1	0xbc9b35a2	-0.018946473
